protonet_epoch_20.pt (torch, 450847 bytes, 20 tensors)

embed.encoder.0.weight f4 [32, 3, 3, 3]
00000000: d5c6 27be 5e40 e6ba 8dca d2bd 93e0 1ebe
00000010: dd70 57be 3da0 00bd f341 11be 825f 4bbc
00000020: 2797 0c3e ae87 ed3c 5d75 bc3d 0b17 2f3e
00000030: c86c aa3c 31af 6ebc 8916 a53d 6e43 513e
00000040: 616b 283e 1549 d43d d266 383d 11ac acbd
00000050: 08a7 78be 7288 f6bc e6b1 173d 5d5f a83d
00000060: e125 233e acec fd3d cb91 d8bd 8d7f a0bc
00000070: c4db 4dbe ddb9 cebd fa08 6f3e 5627 f0bc
00000080: 9c58 193c e0f5 d33d a8cb 1dbd 70da 57bd
00000090: 1b45 443d bcfb fe3c b028 903d 1262 e3bd
000000a0: 6ebb 40be cde4 2a3c 8307 2cbc 1f4d 863c
000000b0: 4fc0 253d f35a a6bd fc28 5bbe ff43 dd3b
000000c0: 6115 4e3e 3af9 f73d d5ed 183e d36c bd3d
000000d0: 6756 473d ac32 1dbe b6bf 20be bede 293d
000000e0: f39d 4c3d cc55 0fbe 00fa 783c 65b4 f73d
000000f0: 0d21 95bd fd8d 833c d264 463e 8450 823d
00000100: 8927 0fbe d47f 033e 0cf7 e4bd aa04 c2bd
00000110: 3600 9e3d 2518 af3d 2c97 84bd 3591 f33d
00000120: cbfc 72bd 01be 123e 2ee8 293d e2a2 cc3b
00000130: 1c42 39be a300 ee3d 8b47 c4bd 0071 8d3d
00000140: 5340 cfbc 8637 42be 39af f13d 5caa 31be
00000150: 15ed 34be 86ba 93bd 28b5 92bd 68b2 1abe
00000160: 06f8 4fbe a26c cf3d 67f1 13bd 854e 53bd
00000170: bc01 c0bc ff1f 6e3e 64ad 89bc 308a 8a3d
00000180: d4a1 aa3d 1416 603e 70e3 1a3e 2428 21be
00000190: da75 f6bc 2488 f13c 8632 a13d 61e0 1abe
000001a0: d26f 683d b90e 29bc 73d1 223e 1193 09be
000001b0: 4376 063e 2203 00bd 3624 263e dd7c cabb
000001c0: dcd6 6ebd 443f 0e3e 2df4 883e 14d9 5e3e
000001d0: fa34 4d3e c641 c8bd 3be8 e83d 24c5 15bd
000001e0: 390c e7bd b3e2 ed3d 9018 0d3e 089b 90bc
000001f0: b0c8 c2bd 2c47 113e 01bc 9dbd 1b74 efbc
00000200: f747 0cbe 4a2a cd3d e3c4 e4bd 67c9 20be
00000210: 36c1 b3bd a7b7 3f3d 1977 cebd 6bc1 5a3e
00000220: 4f54 3e3e 27df 25be aa5e 10bd 1b8f 5dbd
00000230: 7728 673d 9fc8 bfbd bfbd 553d 8598 42be
00000240: c273 1e3e 26a0 84bd 9cc0 0c3e 9829 fd3b
00000250: e789 8b3d bc06 fb3d 3378 0dbe f454 08be
00000260: 0077 0cbe 4389 433d ad22 4c3d 7db6 ba3d
00000270: f885 81bd 1da7 97bd 7e4b bcbd 8a1d 42be
00000280: fdd4 0f3e 23bc 1e3d fd52 12bd 206b 463e
00000290: c6af 1b3e 92a7 a8bc 001d 983b 278d 5f3e
000002a0: 21cb ef3d 312b 883d 7de8 cc3d 1a19 7b3d
000002b0: 66f1 9fbd 2fac 333e b906 b5bc dc09 ad3d
000002c0: e719 a6bd 18e6 b03d 9725 a0bb 7f2d 2c3e
000002d0: 1bbc 2d3d 3a13 143d 07b8 36bd a448 4f3d
000002e0: f6d4 833c 4d7f c1bd 0ba4 323e 4b40 193e
000002f0: 1921 0c3e 7a77 ff3d 6757 8d3d 3009 9abc
00000300: 5540 f93d e6fe b23d 1828 033e a1e2 4e3e
00000310: 5287 bdbd 8f28 23be 1121 44be 3aed 253e
00000320: c6ca 09be bfad 013e 24ca 30be 97fa 70bd
00000330: 4c02 48be 29d3 50bd 89cc fb3c 4151 973d
00000340: 53f6 34bd 2dd2 21be 511f f6bd 3552 89bc
00000350: cd39 963d e389 1c3d 64a9 843d 21a2 1a3e
00000360: af42 5fbc 0877 013e df17 48be 247b e7bd
00000370: fa74 0ebe 1ef9 f93d 784a c93c 9d31 b9bc
00000380: 6821 f93d 8e68 513d 3bbe e7bd 79b6 c03d
00000390: 756f 4abc 7bbb 0b3d 1fa9 a5bd 3e66 993d
000003a0: 2eca 14be e91b 403c 68cc f93d 0a4f 7e3e
000003b0: e8e9 893e 6aed 233e 0cb8 433e 6909 a43c
000003c0: 0e25 3a3d 596d 7d3e 0b52 b63c 30bd 3f3c
000003d0: 3f0a fabd 0a6c 0e3e c98b 2a3e 4010 0dbe
000003e0: ef4e 97bc 4164 b23d ab83 5b3e 5d45 333e
000003f0: 7aa5 0dbc cf4a 2f3e 3768 ebbd 28a0 0cbe
-0.16384442 -0.001756679 -0.1029254 -0.15515356 -0.21039148 -0.031402815 -0.14185314 -0.012412908
0.13729535 0.028995361 0.09202073 0.17098634 0.020803824 -0.014568136 0.08060939 0.20435879
0.16447212 0.10365502 0.045019932 -0.084312566 -0.24282467 -0.03009436 0.03703489 0.08221314
0.15932418 0.12398657 -0.10574683 -0.019592071 -0.20103365 -0.10094044 0.23343268 -0.029315632
0.009359505 0.10349631 -0.0385243 -0.052698553 0.047917467 0.031125896 0.070390105 -0.1110269
-0.18821499 0.010430527 -0.010499838 0.016394196 0.040466603 -0.08122816 -0.21402353 0.0067524905
0.20125343 0.12108083 0.14934476 0.09249272 0.048666384 -0.15351361 -0.15698132 0.04147219
0.04995532 -0.13997573 0.015196323 0.120949544 -0.072816946 0.016058916 0.19374397 0.063630134
-0.13979925 0.12841731 -0.11179933 -0.09473546 0.07714884 0.08549527 -0.06474146 0.118929304
-0.059323113 0.14330293 0.04148119 0.006245003 -0.18091625 0.11621215 -0.09583958 0.06906319
-0.025299227 -0.18966493 0.11800999 -0.17350143 -0.17668565 -0.07213311 -0.07163459 -0.15107119
-0.20309457 0.10128142 -0.03611889 -0.051588554 -0.023438327 0.23254393 -0.016806312 0.067646384
0.083316475 0.21883422 0.15125823 -0.15737969 -0.030085493 0.029483862 0.07870965 -0.15124656
0.056747265 -0.010318452 0.15900211 -0.13435008 0.13131051 -0.031252988 0.16224751 -0.0061794356
-0.058310375 0.13891321 0.2674879 0.21762496 0.2003974 -0.0977817 0.113724194 -0.03656496
-0.11281628 0.11615505 0.13778901 -0.01765205 -0.09510934 0.14187306 -0.077018745 -0.029230168
-0.13699327 0.100178316 -0.11170366 -0.15701829 -0.087770864 0.046806004 -0.1008131 0.21362846
0.18586849 -0.16198407 -0.03524653 -0.054091554 0.056435075 -0.09364437 0.05218291 -0.19003494
0.15473846 -0.064758584 0.1374535 0.0077259056 0.06813412 0.12257144 -0.13815384 -0.13313657
-0.1371727 0.047738325 0.049837757 0.09116838 -0.06324381 -0.07404921 -0.091940865 -0.18956581
0.14046092 0.03875364 -0.035723675 0.19376802 0.15203771 -0.020587716 0.004642129 0.21831189
0.11708666 0.06648863 0.10005281 0.061303236 -0.07809715 0.17546152 -0.022097932 0.08449146
-0.08110409 0.08637637 -0.0048872936 0.1681423 0.04241572 0.03615115 -0.044609096 0.050606385
0.016092759 -0.09448109 0.1744539 0.14965932 0.13684501 0.1247396 0.06901436 -0.018803209
0.121704735 0.08740024 0.12808263 0.2020364 -0.09254326 -0.1593344 -0.19153239 0.16203776
-0.13456258 0.12663935 -0.1726461 -0.05883273 -0.19532126 -0.050982628 0.030737178 0.07388545
-0.044180226 -0.15802832 -0.12017692 -0.016762832 0.073352434 0.038217437 0.06477621 0.1510091
-0.013626738 0.12643063 -0.19540356 -0.11302784 -0.1391181 0.122057185 0.024571642 -0.022606665
0.12164575 0.0511251 -0.113155805 0.09409804 -0.012355675 0.034114342 -0.08088898 0.07490204
-0.1453025 0.011725404 0.121971905 0.24834839 0.2693627 0.16008535 0.19113177 0.020024018
0.045445494 0.24748744 0.022255918 0.011702821 -0.122089855 0.13908401 0.16654886 -0.1377573
-0.018470256 0.08710528 0.21436946 0.17506929 -0.00864541 0.17118381 -0.11494487 -0.1373297

embed.encoder.0.bias f4 [32]
00000000: 7b8b 2f3e cc3d 31be 6f10 d8bd dbc1 d0bd
00000010: 5be4 7e3c e962 303d 0e0d 713d 9f32 973d
00000020: 48aa 363e 4f2b 193e db2a 113e ebe2 93bd
00000030: 0a13 063e 5fd2 36be db32 87bd 635a abbd
00000040: 61ae fabc fc72 46bd d8ac aabd 7a72 093e
00000050: faa7 a23d ca1e 0b3e 912e 1e3e d67f 43bd
00000060: dac6 1fbe c470 48be f183 bd3d 4e81 ef3d
00000070: 2b7d bdbc b468 13be a29a 2d3e 2478 18be
0.17143051 -0.1730873 -0.105500095 -0.10193225 0.015557374 0.043063078 0.05885034 0.07382702
0.17838395 0.14957927 0.14176504 -0.072210155 0.130932 -0.17853688 -0.06601497 -0.08366849
-0.030600728 -0.0484495 -0.083337486 0.13422576 0.07942195 0.13585964 0.15447451 -0.047729336
-0.156032 -0.19574267 0.092536815 0.11694585 -0.023130974 -0.1439541 0.16953519 -0.1488958

embed.encoder.1.weight f4 [32]
00000000: 63c8 8b3f 356a 763f 610b 7e3f 639c 883f
00000010: 926e 783f 0554 843f 8e34 6f3f b945 7c3f
00000020: e013 723f f6ad 673f 0513 823f b966 723f
00000030: cf3b 7e3f a9fa 823f fca9 663f 199b 673f
00000040: df16 683f 48a9 753f 525b 703f 866a 813f
00000050: 3046 843f ce80 9a3f 2c4a 693f b32d 783f
00000060: 3abc 713f f7cb 8b3f 4856 803f f02d 653f
00000070: b281 743f d73a 813f ae48 833f a3f1 7c3f
1.0920528 0.9625581 0.9923611 1.0672725 0.97043717 1.0338141 0.9343957 0.9854389
0.94561577 0.9049982 1.0162054 0.9468799 0.9931001 1.0232745 0.90103126 0.90471035
0.906599 0.9596143 0.93889344 1.0110633 1.033392 1.2070558 0.911288 0.9694473
0.94427836 1.092162 1.0026331 0.8952322 0.955104 1.0096081 1.0256555 0.9880621

embed.encoder.1.bias f4 [32]
00000000: 2f78 38bd fcde 35bd 121c 5b3c 9f63 59ba
00000010: b3fa e2bd 7f68 8d3d 7dbe f5bb 74f1 b63d
00000020: 4cd2 20be a62f 8fbd 5228 803d 4a70 d5bd
00000030: 6363 8b3c 3068 b2bd 3555 3ebe b528 edbc
00000040: a51f 183b 2055 fdbd 8615 8d3d 0b31 c1bb
00000050: 58ab 323d 1ea1 f13c f64e 12be 5235 50bd
00000060: 0920 6cbd feee 9c3c c1d1 d7bc a398 0abe
00000070: ad26 fb3b bee5 f2bd 235a a03d c577 72bd
-0.04503649 -0.044402108 0.013373392 -0.0008292738 -0.11082973 0.06904697 -0.0074995146 0.08932772
-0.15705222 -0.0699151 0.062576905 -0.10421808 0.017015165 -0.087112784 -0.18587191 -0.028950075
0.002321222 -0.12369752 0.06888871 -0.005895739 0.043620437 0.029495772 -0.14287934 -0.0508321
-0.05764774 0.01915693 -0.026345136 -0.13534789 0.0076645226 -0.11860226 0.07829692 -0.059196252

embed.encoder.1.running_mean f4 [32]
00000000: 9cc8 813d 59ec 5dbe 70c6 03be be91 cabd
00000010: 6505 f83d 03db 5e3d c30d 87be a2db da3d
00000020: 6a94 a2be f080 533e bda7 123e 6cbb 92be
00000030: 2383 943e 1e62 7abe d937 06be 02bb efbe
00000040: 3778 31be 7bfe 68be 13c0 07be 6aa0 bebd
00000050: 8298 fbbc 9c02 0a3e 25ed 193e 0028 cdbd
00000060: 2a06 323e 4b38 54be ed7a 4fbd 684c f63e
00000070: 1d5f f43d 3d19 62be 7b1a 9a3e 63aa 01bd
0.06337091 -0.2167219 -0.12868667 -0.09891079 0.12110404 0.054408085 -0.26377687 0.10686423
-0.31753856 0.20654655 0.143218 -0.28658617 0.290063 -0.24451491 -0.13107242 -0.46822363
-0.17331015 -0.22753327 -0.13256864 -0.0930794 -0.03071237 0.13477558 0.1503187 -0.10017395
0.17385164 -0.20724599 -0.05065434 0.48105168 0.11932204 -0.2207994 0.30098328 -0.031656634

embed.encoder.1.running_var f4 [32]
00000000: 1902 c63d 46b0 693c 79ee ca3c 7bb4 003e
00000010: eade 863e e2c1 a03c 9924 1a3f 4080 1b3d
00000020: f92f c23e 49ea 4f3d 4e97 823c 4637 d73d
00000030: c427 863d 5d39 693d 49ad ce3d b958 da3e
00000040: 6f40 d23e f9c9 b43d 83c1 8b3c 0975 ec3d
00000050: 502e ee3d 1e05 303c 2638 b73d fefd 0a3e
00000060: 2f37 da3e bcc8 143c 0f23 453d 01ba 083f
00000070: 5bf0 ad3d 133f d33d 65f9 d53d 3e83 c23d
0.09668369 0.014263218 0.024771916 0.12568848 0.26341945 0.0196237 0.60212094 0.037964106
0.37927225 0.05076054 0.015941288 0.105085894 0.065505534 0.05693947 0.10091645 0.42645815
0.41064784 0.08827586 0.017060047 0.1154576 0.11629927 0.0107434075 0.08946256 0.13573453
0.42620227 0.009081062 0.048129138 0.5340882 0.0849311 0.10314765 0.10447959 0.09497689

embed.encoder.4.weight f4 [64, 32, 3, 3]
00000000: 5023 b8bd 6d83 babc d452 06bd ab1e a43c
00000010: d329 3cbd b34d e93c 0e07 b7bd b4c2 8fbd
00000020: 9d90 07bd 5512 8a3c de9d ca3c 3c43 b2bd
00000030: 4c19 2ebc f81e ae3d 2ad5 8dbd 1b1d aabd
00000040: bbf0 653d eb83 b8bc 2004 a23c 76ff 883d
00000050: 0018 c8bd 52ce 083c 2166 273c 4f27 40bc
00000060: 2200 10bd 15c0 b53c 61db acbd bc94 0b3b
00000070: a1a4 c63d 0ef8 033c 7e09 9c3d 2579 113c
00000080: cc38 af3d 2227 463d d99f b13d 827b 97bc
00000090: 62e1 9ebd 772b 003d 5407 24bc c8cf 333c
000000a0: cbc5 243d 9aca 033d d713 103c 2c79 353d
000000b0: 4c50 1c3d a067 83bd 5f2d 85bd 7e70 97bd
000000c0: ef82 b0bb d9fd 40bc 7310 c83b 1e87 afbd
000000d0: 76fe 27bd 0b8c cabd f54a 71bc dcd2 03bd
000000e0: cc7a 46bd 6574 513d 23b4 e7bc 4f37 86bc
000000f0: ceba 0f3d 0a8c 143d ae98 8dbc c2ef 86bd
00000100: c879 c1bc 0b68 89bd 29cf 51bd 8ce7 eabc
00000110: ea07 22bd 8412 30bd 4a58 153d f343 9fbd
00000120: 8db1 efbc 3e72 fc3a 95dd 18bc b092 10bd
00000130: 9129 9b3c 54be 8fbc 4972 77bd 263a 3e3d
00000140: e318 553c 47f4 c33c fcc2 093c 5ad7 bd3b
00000150: ac1d b9bb 11b4 3cbc 9ea5 10bd c4c3 093c
00000160: 94c4 353d ba2c febc bc09 08be db5e bdbc
00000170: 3717 fcbd 208b 3bbd 350c 7c3d f490 203b
00000180: d9c3 06be e85c 47bd de8d 40bd e822 f8bc
00000190: b4ef 383d 62bb 33bc e6da fe3a 2ccc 483d
000001a0: fee9 3e3c 46b9 dabb 0010 903c 6157 00bd
000001b0: 8631 8fbd 01b0 1fbd 63a4 dabd 6af9 17ba
000001c0: 4cb5 903c 08cf bcbc b72a 56bd 7ec7 f8ba
000001d0: d390 cfbd 0260 febc 8895 b6bd 4686 06be
000001e0: 6251 1bbd 61ce 99bc ebd3 8ebc 28ec dfbd
000001f0: 3e64 0cbc 6513 91bd a34f 58bc ee92 913a
00000200: 0bc1 abbb add6 233c 1145 a93c ac81 983c
00000210: 5dea d7bc 9c53 6abd 48a5 00bc 385d 78bd
00000220: 6efa f03b 63cc c9bc 3999 8bbd 6854 173d
00000230: 88f7 6dbd be48 84ba f3e8 babc 4d4b efbc
00000240: 3d86 8fbd d663 29bd aafc e1bc 6651 563c
00000250: 7f45 e23b 02d0 babc 29a1 283d 9915 803d
00000260: 76d0 283d e6df 2bbd 3cc1 04bd ecf2 70bb
00000270: 192f 7d3b 250d 86bb 324f 0fbd a22e 1fbd
00000280: a7a2 7b3b 6983 48bd dd89 09bc ced2 02bd
00000290: 8a33 65bd 8f03 0dbc 879b dcbc 28d9 45bc
000002a0: 20e4 adbd 5889 60bc 9d5a b4bd fcb4 ab3c
000002b0: 021c e43c 2f71 6abd 3088 dabc 69d8 793d
000002c0: bc52 80bc 825c 77bd 88b1 c5bc 876c 65bd
000002d0: bd2a f2bc 162e ee3c 5110 35bc 8c3f ed3b
000002e0: 3bd0 8f3d 27a2 523d 413b afbc d69f 6d3d
000002f0: f484 f1bc 4b00 5dbd 3e46 8abd 87ad 1dbe
00000300: 717b 893a fcb1 cc3b 7f22 aabd 07b5 04be
00000310: 7c32 88bd 37b8 35be a570 aebd 666c dc3c
00000320: 5b6f 1fbd 925c d13c 8c6b 623c 1088 d63c
00000330: a60e b1bd b993 09bd 2328 b8bd a5d5 39bd
00000340: a0ba cabd f1b3 11be ce5c f0bd 7f01 c9bd
00000350: 0a6b 95bd eb59 59bd 8789 0cbe 82f9 05be
00000360: b7c8 aa3b 2f25 1ebd f6a1 a6bd 3975 3ebd
00000370: b3b8 a9bc ff7b 9fbd c417 a4bb 8a32 63bd
00000380: c977 8abd 49b1 6fbd cb6b e3bc da95 44bd
00000390: 2628 00bd fb5c cabc 7e51 853c d85d 9abd
000003a0: a933 6abd 497c 42bd a2a8 31bd 0c12 2c3d
000003b0: 4e46 28bc 5c21 16bd 615e d73c a25e 92bd
000003c0: 283a 3c3c c076 f43c 4c0e c33b 294d 553d
000003d0: 91a2 0b3c 823a 253d fc2b 9c3c 3835 80bc
000003e0: f15f acbc edc4 b6bb 22fd 4f3d 3bbd ce3c
000003f0: 6ebb 653d ec02 7e3d 481e 1d3d e3da 6c3d
-0.0899111 -0.022767747 -0.032793835 0.020034155 -0.045938324 0.028479433 -0.089368924 -0.070195585
-0.0330969 0.016854445 0.02473348 -0.0870423 -0.010626148 0.085020006 -0.069254234 -0.08306333
0.05613778 -0.02252384 0.019777358 0.0668935 -0.09770203 0.008349972 0.0102172205 -0.011728122
-0.035156377 0.022186318 -0.08440281 0.002129837 0.09699369 0.008054746 0.07618998 0.008878981
0.08555755 0.048377164 0.08673067 -0.01849151 -0.07757832 0.03129145 -0.010011513 0.010974832
0.040227693 0.032175638 0.008793793 0.04430501 0.038162515 -0.06416249 -0.065027945 -0.07394503
-0.0053867023 -0.011779272 0.0061054765 -0.085706934 -0.041014157 -0.09889992 -0.014727344 -0.032183513
-0.048456952 0.051136393 -0.028284138 -0.016383795 0.03509026 0.036266364 -0.017284717 -0.06588699
-0.02361764 -0.06709298 -0.051222954 -0.028674863 -0.03955833 -0.042986408 0.036461152 -0.07776632
-0.029259467 0.0019260121 -0.009330173 -0.035296142 0.018940719 -0.01754681 -0.060411725 0.046442173
0.013006422 0.023920191 0.008408304 0.005793494 -0.005649289 -0.011517541 -0.035314195 0.008408491
0.044376925 -0.031027187 -0.13284963 -0.02311652 -0.123091154 -0.045786977 0.06153508 0.0024500461
-0.13160647 -0.048672587 -0.047010295 -0.030290082 0.045150474 -0.0109699685 0.0019443899 0.04902284
0.011652468 -0.0066749183 0.017585754 -0.03133333 -0.06991868 -0.03898621 -0.106758855 -0.00057973585
0.017664574 -0.023047939 -0.05228683 -0.0018980352 -0.10135045 -0.03105164 -0.089152396 -0.13137159
-0.03791941 -0.018775167 -0.017435035 -0.10933715 -0.0085688215 -0.07083777 -0.013202581 0.001110641
-0.0052415184 0.009999913 0.020662816 0.01861652 -0.02635687 -0.057208642 -0.007851906 -0.060635775
0.0073540723 -0.024633592 -0.06816334 0.03694573 -0.058097392 -0.001009248 -0.022816157 -0.02921071
-0.07008026 -0.041354977 -0.0275863 0.01308093 0.0069052572 -0.022804264 0.04116932 0.062541194
0.04121443 -0.041961573 -0.032410845 -0.0036765886 0.0038632809 -0.0040909224 -0.034987636 -0.038862832
0.003839651 -0.048953447 -0.008394686 -0.03193932 -0.055957355 -0.0086068055 -0.02692963 -0.0120757
-0.08490777 -0.01370462 -0.088063456 0.020960324 0.027845386 -0.057236847 -0.026676267 0.0609974
-0.01566445 -0.060390957 -0.024132505 -0.056011703 -0.029561395 0.02907471 -0.011051253 0.0072402414
0.07022139 0.05142417 -0.02139056 0.05801376 -0.029482342 -0.053955358 -0.06751679 -0.15398227
0.0010489059 0.0062468033 -0.08307361 -0.12959681 -0.06650254 -0.17746054 -0.08517579 0.026907157
-0.038924556 0.025556836 0.0138195865 0.026187927 -0.08645372 -0.033588145 -0.089920305 -0.045369763
-0.09898877 -0.14228798 -0.11736451 -0.098147385 -0.07295807 -0.053064268 -0.13724338 -0.13083461
0.0052119154 -0.03860968 -0.0813636 -0.04649851 -0.020717954 -0.07787322 -0.005007716 -0.05546812
-0.067611285 -0.05851868 -0.02776136 -0.047994472 -0.03128829 -0.02470254 0.01627421 -0.075374305
-0.057178173 -0.04748181 -0.04337371 0.0420094 -0.010270668 -0.036652908 0.02629012 -0.07146956
0.011488475 0.02984178 0.005952632 0.05207554 0.008522646 0.040339 0.019063942 -0.015650377
-0.021041842 -0.0055776746 0.050778516 0.025236716 0.05608695 0.062014505 0.038358957 0.057825934

embed.encoder.4.bias f4 [64]
00000000: 85a1 d4bb c641 523b dde7 33bb 364d 243c
00000010: cd00 33bd 8db7 74bc b435 45bc ba39 54bd
00000020: 6aa8 b83c ec64 2c3b 14fc e53c 6744 43bd
00000030: e024 0cbd 3e92 d7ba cf37 00bd 2587 f0bc
00000040: 9e25 cebc 78f9 c7bc ce97 1fbd c4bb e6bc
00000050: 0319 4c3d 6c25 093d 4ffc 20bd 7d65 4c3d
00000060: 6b7c 363b f5ba 733d b1e0 043d 5a96 f3bc
00000070: a272 54bd 5e17 1dbd f4fe 7f3d 4a39 9d3a
00000080: 980f a43a 89dd 60bd 6361 f7bc 837e 32bd
00000090: 168c 663d 2224 19bd d0c9 56bd 98e2 a33c
000000a0: 5018 5dbd b66a 59bd 6839 c93c 7f4a bb3c
000000b0: 9e28 2e3d 47ea 673d b6cf 5cbd 0482 b9bb
000000c0: 18af 89bc 9636 c2bc f28d 973a e905 4abb
000000d0: d29d c33b 0da8 2dbd d447 2dbd d3d5 c5bc
000000e0: fb1c 09bd 0ad7 bb3c 2c67 39bd 7106 9d3c
000000f0: 4887 543d fd1a c33c 8f43 1bbd 87c1 b5bb
-0.006488981 0.003208266 -0.0027451434 0.010028174 -0.043701936 -0.01493634 -0.01203673 -0.051812865
0.022541244 0.0026305271 0.028074302 -0.047672655 -0.034214854 -0.0016446782 -0.031303223 -0.029361317
-0.025164422 -0.024410948 -0.03896313 -0.028165706 0.04982854 0.033482954 -0.03930312 0.049901474
0.0027845155 0.059504468 0.032440845 -0.02973478 -0.051867135 -0.038352363 0.062499 0.0011995223
0.0012516854 -0.054898772 -0.030197805 -0.043577682 0.05628594 -0.037387975 -0.052438557 0.02000551
-0.053978264 -0.053080283 0.024563506 0.022862671 0.042519204 0.05661991 -0.053909026 -0.005661251
-0.016807124 -0.02370767 0.0011562689 -0.0030826277 0.0059697414 -0.042396594 -0.04230483 -0.02414981
-0.033474904 0.022929687 -0.045264408 0.01916811 0.051886827 0.02381658 -0.037906226 -0.005546752

embed.encoder.5.weight f4 [64]
00000000: 7654 833f 5758 733f 3ab9 743f 1ac6 7d3f
00000010: 039c 853f 10be 763f 6a3b 813f eb76 853f
00000020: 32d9 783f 4c79 7e3f dcc3 703f 7de5 813f
00000030: f568 793f 9bc1 7e3f c2ed 633f 2c7f 883f
00000040: 6330 823f 509b 823f ea3f 883f 4c4d 833f
00000050: 284c 7c3f 9f1e 833f a705 6b3f d885 753f
00000060: 1695 863f a199 873f 62e5 7f3f 8798 7d3f
00000070: 91b8 803f 4348 723f 5be0 7f3f e6f7 743f
00000080: 63db 853f 2f34 803f 7336 913f edcd 833f
00000090: e67a 853f 30d2 7e3f fff3 803f 4adc 753f
000000a0: 33a7 7f3f 5d42 783f 052a 6c3f 65c6 833f
000000b0: fdde 7e3f 6da8 7b3f 9d4c 813f d5e5 863f
000000c0: a695 793f 0c0b 7f3f 124d 713f 6cb3 823f
000000d0: 150f 823f c807 793f 3103 7b3f 3110 693f
000000e0: e2a3 853f f7fd 6d3f d25b 823f ead3 833f
000000f0: b3b1 723f f0e7 7d3f b0cd 7a3f 178a 713f
1.026015 0.9505667 0.95595133 0.99130404 1.0438236 0.9638376 1.0096257 1.0426916
0.97206414 0.99403834 0.9404886 1.0148159 0.97425777 0.9951417 0.89034665 1.066381
1.0171016 1.0203648 1.0644505 1.0257964 0.98553705 1.024372 0.918055 0.95907354
1.0514247 1.0593759 0.99959385 0.99060863 1.0056325 0.9464151 0.99951714 0.95690763
1.0457577 1.0015925 1.1344742 1.0297219 1.0428131 0.9953947 1.0074462 0.9603926
0.998645 0.9697626 0.92251617 1.029492 0.99559003 0.9830387 1.0101506 1.0538889
0.9749397 0.9962623 0.94258225 1.0211005 1.0160853 0.972775 0.98051745 0.9104033
1.0440638 0.92965645 1.0184271 1.0299046 0.948024 0.99182034 0.97970104 0.94351333

embed.encoder.5.bias f4 [64]
00000000: 0233 f4bd e449 bbbd ecb1 22be aa37 18bd
00000010: 8647 fabc 17ee 4cbe b9e7 c7bd be79 debd
00000020: 4434 82bd eb7f b2bd e7ae d4bd 0b6e cbbd
00000030: c54e 1dbe 6e00 d8bd d232 8abd 035d adbd
00000040: 538a a1bc bec4 11be e8f7 f1bd 31e3 26bd
00000050: 836c bebd a26c 4abd fd29 fbbd f49a 94bd
00000060: 710f babd 83c8 83bd 0d72 c1bd ed10 01be
00000070: 484f e5bd 530e 34be f2a0 03be 2c94 12be
00000080: f1aa c8bd 78db 06be 9be6 98bd f0ca 2abe
00000090: 22be d4bc 7ae2 dabd d439 cdbd c2fd a4bd
000000a0: 8398 e6bd 59a6 3cbe d392 10be 5a11 03be
000000b0: bc62 a5bd 17ab f1bd c866 0ebe 78f1 09be
000000c0: 3d5d 94bd 4d0e 01be ce60 4dbe 34b1 08be
000000d0: 11c1 01be 11ac d3bd 6e45 abbb f7b0 8fbd
000000e0: b697 143d 67b0 26be 66f2 efbd 5172 b7bd
000000f0: e0fb 0cbe 28a5 17bd a906 6ebe a107 01be
-0.119237915 -0.09144953 -0.15888184 -0.03716246 -0.030551683 -0.20012699 -0.097609945 -0.10863064
-0.06357625 -0.08715805 -0.103849225 -0.099330984 -0.1536208 -0.10546957 -0.067479745 -0.08465006
-0.019719278 -0.14235207 -0.118148625 -0.04074401 -0.09298041 -0.049420007 -0.12263868 -0.072561175
-0.090849765 -0.06434729 -0.094455816 -0.12604113 -0.11196762 -0.1758359 -0.12854365 -0.14314336
-0.097982295 -0.13169658 -0.074658595 -0.16678977 -0.025969569 -0.10687728 -0.100207955 -0.08056213
-0.11259558 -0.18422832 -0.14118509 -0.12799588 -0.08075473 -0.11800211 -0.13906395 -0.1347102
-0.07244346 -0.12603112 -0.2005646 -0.13348848 -0.12671305 -0.103355534 -0.0052267825 -0.07016175
0.036277495 -0.1627823 -0.11716156 -0.08957351 -0.13767958 -0.03702274 -0.23244728 -0.12600566

embed.encoder.5.running_mean f4 [64]
00000000: 294b 48c0 76fc 2cc0 e4b6 bb3e 46f9 60bf
00000010: db1a 22c0 3dd3 f2bf 403c 34bf 06de e2be
00000020: 2736 be3f 2c50 923f ca56 1ec0 70aa 6c3e
00000030: 561d cdbf 222e 54bf 8e38 3ebf 14d6 f93c
00000040: 0865 81bf 6685 64bd f075 06c0 34b3 ebbe
00000050: 63e1 29c0 eff5 d5be 90a7 9ebf 3452 ffbf
00000060: c44b ed3f 9620 1dc0 2c6b f8bf a133 9e3f
00000070: 4791 b53f e365 553f 1e42 d53f 71ee 25bf
00000080: c7bb 23c0 e37b 7b3f 82ab 20c0 eb30 39c0
00000090: 7d5a cc3f b647 67bf 3d9e 253f 8df3 93be
000000a0: edf9 8c3f cb9b d8bf 4412 a83e 48ee 63c0
000000b0: bde1 55be 4859 49c0 8c85 35c0 a351 51bf
000000c0: f53f ba3d dda4 85be c760 10bf 3b50 67bf
000000d0: 494b 11c0 b580 3a3f e35d f9bf 43b0 08c0
000000e0: 38fd 03c0 7459 5abe e99b 4fbf fec6 20c0
000000f0: f1dd 13c0 6e4c ccbf d245 df3f 504c d43f
-3.1295874 -2.702909 0.36662972 -0.8788036 -2.5328891 -1.8970715 -0.70404434 -0.44310015
1.4860276 1.1430717 -2.4740472 0.23111892 -1.6024578 -0.82882893 -0.74305046 0.030497588
-1.0108957 -0.05579128 -2.1009483 -0.4603516 -2.6543815 -0.41789195 -1.2394886 -1.9946961
1.8538747 -2.455114 -1.9407706 1.2359506 1.418496 0.8335859 1.6660802 -0.6481696
-2.558336 0.9823591 -2.510468 -2.8936107 1.5965115 -0.903438 0.6469458 -0.28896752
1.1013771 -1.6922544 0.32826436 -3.5614185 -0.20886894 -3.1460743 -2.836276 -0.8176519
0.0909423 -0.26102343 -0.5639767 -0.90356797 -2.27022 0.7285264 -1.9481777 -2.1357582
-2.0623302 -0.21323186 -0.81097275 -2.5121455 -2.3104212 -1.5960824 1.7443182 1.6585789

embed.encoder.5.running_var f4 [64]
00000000: d917 4440 b5a6 8f40 4b34 3040 10c9 0b40
00000010: 84e5 4340 ab0b 0340 2861 af3f bbe6 0240
00000020: d8be 3940 e241 1440 e6b1 4740 5c0f c03f
00000030: 0e40 f43f b5de 2740 e82d fc3f f56c 0740
00000040: 87a3 af3f 30ea 4440 4e24 8240 4f9e e33f
00000050: 1137 5440 1c1d 3740 e6c2 0c40 8086 0140
00000060: c547 7240 94a0 9340 bfa9 b93f 0501 6040
00000070: bf62 5240 f156 1940 5070 0c40 9d30 e13f
00000080: 8e3b c540 35c9 5b40 55c0 7d40 8a7a 8c40
00000090: ed40 d63f da43 3f40 9baf 6840 7557 1f40
000000a0: e396 0340 8799 0140 3c58 7840 2522 d140
000000b0: 6474 593f e598 ed3f 7329 a140 480c 1e40
000000c0: 4fa6 0d40 f8c3 1d40 f431 3e40 94d6 8040
000000d0: 4955 c640 0e40 0040 27e1 5e40 524f 2c40
000000e0: 38fb d13f 0807 1340 aa0f dc3f 3fb6 d240
000000f0: 647c 5e40 9f25 3f40 769b 1540 868e 2e40
3.0639555 4.4891 2.7531917 2.184147 3.0608835 2.0475872 1.3701525 2.0453327
2.9022732 2.3165212 3.120233 1.5004687 1.9082048 2.622968 1.970151 2.1160252
1.372178 3.0767937 4.0669317 1.7782687 3.315861 2.8611517 2.1993957 2.0238342
3.7856305 4.613352 1.4504927 3.5000622 3.287277 2.3959315 2.194355 1.7592961
6.16352 3.4341557 3.964864 4.3899584 1.6738564 2.9885163 3.635718 2.489713
2.0560844 2.0249956 3.8803854 6.535418 0.84943223 1.8562285 5.0363097 2.4694996
2.2132757 2.465086 2.971799 4.0261936 6.197911 2.0039096 3.4824922 2.6923413
1.6404791 2.2973042 1.719228 6.584747 3.4763422 2.9866712 2.3376136 2.727449

embed.encoder.8.weight f4 [128, 64, 3, 3]
00000000: a81e 2e3d 3220 af3c b86e a03d f7a0 ad3d
00000010: 7c82 8e3d f9c8 083d de60 633d 3054 c13d
00000020: 19e8 0e3d 8d48 6fbd 9685 4bb9 1852 c43a
00000030: 4501 2fbd 9e8c 5a3b 0a65 87bd 2545 77bd
00000040: 091e 88bd 643b 2abc e647 71bd 1dbd 8d3b
00000050: f75f 7abd 20fe 36bd cf94 d4bc 45e0 08bd
00000060: bbff 30bd 0a67 89bd e84c 88bd b9b8 d1ba
00000070: a3a1 2c3b 9ddc e33b c2dd dc3c a63a f33c
00000080: 2a78 cbbc b0e6 09bc e62d acbc b325 77bc
00000090: bf3b 2ebd 5421 0cbd 91c6 78bd 9f58 98bc
000000a0: b839 813c 443f 24bd e8b7 93bb d7e9 26bd
000000b0: 04d7 3bbd 2405 0bbd 0926 313c fdf5 34bd
000000c0: f047 573c 9073 5cbb ee74 fabc e7de 9c3c
000000d0: 2e85 30bd 2993 5bbc 4387 a03c 2655 013d
000000e0: 4b31 8bbc df08 6a3c 6ee7 423d 18d9 583c
000000f0: 1d6e 05bd 9659 ad3c eb8e a6bb fc46 a6bc
00000100: f981 a3bc 499c 86bb 3a16 313c a4f2 35bd
00000110: cb36 21bd 3a77 92bc 0fed 023d 7743 45bc
00000120: ee71 3e3d e265 203d 27ab 393d 0599 303d
00000130: a122 723d 343e 423b 9845 783d 2aca a13c
00000140: 0b31 9c3d e7ca 18bd 9405 813c 7d0f 05bd
00000150: 94d3 0abd 3abc 4dbd e419 a4bc a15a 40bc
00000160: 9e86 a0ba 9460 013d 4966 723c 6464 8ebc
00000170: 3f93 aa3b 2b93 40bd 2bc4 03bd 2003 863b
00000180: 0a43 2d3c cedf 803c e485 4dbc 70c1 0d3d
00000190: d92c 3d3c 1d1a c63c e975 043d a19d 063d
000001a0: 6d10 5fbc d075 253d 43d0 993b a1b3 393d
000001b0: c427 28bd cd79 983c 7cc1 c2bc c4a6 4b3c
000001c0: e696 e8bb 1821 01bd abf4 ecba 8eeb 863b
000001d0: 78a2 0d3d e925 0dbd a2f2 28bc 7f5e 37bd
000001e0: 5a3e bdbc 7539 773c 031c a2bc e673 98bb
000001f0: 66f0 ebbc 10e5 e3bc 01b0 1fbd c8e7 92bc
00000200: f20c 873c 6bc3 193c 9703 ffbc 8df5 cebc
00000210: c187 b4bc 0fd4 d6bc 5f66 eb3c 3b0d 90bd
00000220: e758 9cbd 820a 02bd 9274 0cbd e98f 16bd
00000230: 756d 68bc 634f 97bd decf a9bd 7b99 04bd
00000240: d15c 523d ab58 863d 97e7 a73d 84ac 553d
00000250: b1d2 073d e815 ac3d 6cf8 6b3d 1215 b73d
00000260: 9c9f 723d 1fc8 853c 00b5 773c 230e f23b
00000270: 07c4 383d 9183 223d 1a83 88bc 3682 113d
00000280: d8cc 113d c2cf f5bc bf64 b6bc ea5a ef3c
00000290: d443 9a3c 130e 3d3d bae3 d93c cdd7 893d
000002a0: 7346 613d 739d 893b 5466 1f3d a505 fabc
000002b0: 1dbc 52bd 37a5 ccbc d8e7 603c 46fc 83bc
000002c0: 780c 37bc 38d5 d7bc f8ee 7abb 1c8f 783c
000002d0: 87fc 9b3c 4b40 e93c 15f8 233d f57a f53b
000002e0: 6e97 e63c 00a2 bc3c a78c dabc be20 f7bc
000002f0: 4d0b ecbc 49e6 a8bc 3aa2 2bbd 1003 76bc
00000300: 42e2 bbbb bf31 233d b421 0a3c 34fe 233c
00000310: e0ee b1bc 30ac 04bd 816d f93b 51cb 2fbd
00000320: 6392 b33b 4c7a 8ebd abb0 553c a1e9 aabc
00000330: defa 3ebc 000f b9bc fb74 44bd 5833 503d
00000340: 5ab4 c53c 12cf 6c3c 7a44 633d da8d 993d
00000350: 9541 3b3d 6f2a c63c 68cf 433d a74e 173c
00000360: a70a d4bd 2923 b0bd e2ef f1bd c7c0 c0bd
00000370: f3e4 e5bd b796 f6bd c73c 98bd 5a83 85bd
00000380: aead c6bd 44da e83d e545 ac3d 1e94 d43d
00000390: 8d3b 7b3d 0d1b d53d b645 733d 9a7c b53d
000003a0: 3671 e33d 04f9 b63d 7ce6 e93d aeb7 8d3d
000003b0: 4a0b e03d c3b7 103e 1281 b93d 4de5 ae3d
000003c0: 8382 bf3d 9b0e ac3d c86a b73d b0d0 3dbd
000003d0: 79cf 01bd b8d6 3cbd 544a c7bd 6359 debc
000003e0: 7d2f a6bd 643b f4bc 0230 8dbc f1ee 2abd
000003f0: 7eb5 2cbd 013e 89bc 5f2a 2fbd 49e6 a2bd
0.042509705 0.021377657 0.07833618 0.08477967 0.06958482 0.033394787 0.0555123 0.094398856
0.034889314 -0.0584188 -0.00019409353 0.0014978079 -0.04272582 0.0033347975 -0.066110685 -0.060368676
-0.06646354 -0.010390136 -0.05890646 0.0043255226 -0.061126675 -0.044675946 -0.025949864 -0.033417005
-0.043212634 -0.06709106 -0.06655294 -0.0016000486 0.002634146 0.0069537894 0.026961211 0.029691052
-0.024837572 -0.008416817 -0.02101798 -0.015084672 -0.042537447 -0.03421147 -0.060736243 -0.018596945
0.015774593 -0.040099397 -0.0045080073 -0.04075035 -0.04585935 -0.03394045 0.010812291 -0.044179905
0.01313971 -0.0033638217 -0.030573335 0.019149257 -0.04309576 -0.013401785 0.019595748 0.031575345
-0.016991278 0.014284342 0.04758399 0.013235353 -0.032575715 0.021160882 -0.005082955 -0.02029752
-0.019959437 -0.004107986 0.010808522 -0.044420853 -0.039358895 -0.017879117 0.031964358 -0.012040011
0.04649537 0.039159663 0.04532924 0.04311468 0.059115056 0.0029639127 0.060613245 0.01974972
0.07626542 -0.037302878 0.01574973 -0.032485474 -0.033893183 -0.050228335 -0.020031877 -0.011740358
-0.001224715 0.031586245 0.0147948945 -0.017381854 0.0052055414 -0.04701535 -0.032169502 0.004089728
0.010575065 0.015731718 -0.012544129 0.034608305 0.011546337 0.024182374 0.03233901 0.03286517
-0.013614756 0.040395558 0.004694016 0.045337323 -0.04105355 0.018612767 -0.023773901 0.012429897
-0.0070980666 -0.0315257 -0.0018078288 0.004117436 0.03457877 -0.034459982 -0.010311754 -0.044767853
-0.02310102 0.015089382 -0.019788748 -0.004652488 -0.028801154 -0.027819186 -0.03898621 -0.017932788
0.016485665 0.00938497 -0.031129641 -0.025263572 -0.022037389 -0.026224164 0.028735338 -0.070337735
-0.07634144 -0.031748302 -0.034290858 -0.036758337 -0.014186253 -0.07388189 -0.08291601 -0.032372933
0.051358048 0.06559881 0.08198469 0.052166477 0.033159915 0.08402616 0.05760996 0.08939566
0.059234247 0.016330777 0.015118837 0.007386939 0.04510882 0.039676253 -0.016664077 0.03552457
0.035595745 -0.030006293 -0.022264836 0.029218156 0.018831171 0.046156 0.026597846 0.06730614
0.054998826 0.0041996776 0.038915947 -0.03052027 -0.05144893 -0.024981124 0.013727151 -0.016111504
-0.011172406 -0.026346788 -0.003828941 0.015170839 0.019041313 0.02847304 0.04003151 0.0074914643
0.02814838 0.023026466 -0.026678396 -0.03016698 -0.028813982 -0.020617621 -0.04190276 -0.015015379
-0.005733759 0.039842363 0.008430887 0.010009337 -0.02172035 -0.032390773 0.007611931 -0.042918507
0.005480097 -0.0695692 0.013042609 -0.020863356 -0.011656491 -0.02259016 -0.047963124 0.050830215
0.02413385 0.014453666 0.055485226 0.07497759 0.04571684 0.024190156 0.04780522 0.009235061
-0.10353594 -0.08600456 -0.11813332 -0.09411769 -0.11225309 -0.12040465 -0.07433467 -0.06519194
-0.097010955 0.11369756 0.08411769 0.103798136 0.06133609 0.1040555 0.059392653 0.088616565
0.11105578 0.08934215 0.114209145 0.069198 0.10939653 0.141326 0.09057821 0.085398294
0.09351065 0.08401223 0.08955914 -0.046341598 -0.031692002 -0.04610321 -0.09730974 -0.027142232
-0.081145264 -0.029813476 -0.017234806 -0.04173178 -0.042165272 -0.016753199 -0.042765018 -0.0795408

embed.encoder.8.bias f4 [128]
00000000: a42c ed3c 66bc 293d 4c2f f73c a397 68bc
00000010: 925d ec3b 09d7 eabb 9397 6f3c 3e09 303d
00000020: 1ff6 bbbc 7f65 ad3c b71f af3b 7276 fb3c
00000030: bde5 b43b 9f49 f13c 5a21 153d 3a69 163d
00000040: c961 463c 401c 54bc 281a e0bc 3777 f0bc
00000050: f430 983c d400 e03c 67cd febc 0000 0b3d
00000060: cd84 26bd cf0b 273c 7a3a 24bc fca4 febc
00000070: 7529 093d 2b04 653b f253 0c3c 6e89 693c
00000080: 250e 1c3d e856 3cbb 82c7 2ebc c5b0 2abd
00000090: 22f0 93bc d82e d03c baa7 fbbb f94e ff3c
000000a0: 4229 f23c a5c2 03bd 3f72 103d dfd5 183d
000000b0: 414f 15bb dba7 13bd a1d9 123d 8b14 aebc
000000c0: dc60 4ebb 3bf4 873c c5b9 78bc 6b17 0bbd
000000d0: 3962 293d df5b 083d 8d16 89bb c47c 07bd
000000e0: d89c c1bc 2784 073d 680b cfbc 60fa d5b9
000000f0: 3f21 f03c 17ed 1fba 7585 183d 77cf 813c
00000100: 6d0e 0dbd 93de 8ebc d19e 74bb d51a 2dbc
00000110: 4313 303d fb1f e2bc 4486 5a3c 47c6 223d
00000120: 538c 01bd 8570 18bd 76d1 08bd 077c 50bc
00000130: dfe3 293d c6e3 983c da40 db3a 1764 2b3c
00000140: f5c1 c33c f6bb f5bc f8cb a0b9 0bd6 0ebb
00000150: b098 513c bcd5 00bd ee2a 91bc 08ba e5bc
00000160: 502c 52bd 74d1 1ebd 9423 b5bc cb90 813c
00000170: 50a7 703c 6815 86bc 6ceb 943c 4b17 d6bc
00000180: 5c43 b2bc 24f1 253c 3b6a ecbc d48e 81bc
00000190: 690e 8b3c 8080 66bc 8ba4 14bd 5dbd b03c
000001a0: f9ee 22ba 969a 4c3b 5c33 debc 53e7 a73c
000001b0: d504 0c3c f70e 10bd 4d8e b8bc 4ec2 2bbb
000001c0: 7173 de3c a31b 0e3d 2e14 193d f2e0 0d3d
000001d0: 044e 11bc 5974 1dbd 5da8 f4bc e5c4 bcbc
000001e0: af75 de3c a93e 11bd f608 72bc 9f9e 1fbc
000001f0: 9001 bd3c 486e 98bc 79ff 2cbd 4d0c c73c
0.02895195 0.041439436 0.03017392 -0.014196309 0.007213303 -0.0071667475 0.01462354 0.042977564
-0.022944508 0.021166561 0.005344357 0.030696128 0.005520551 0.02945405 0.03640876 0.036721446
0.012108275 -0.012946188 -0.027356222 -0.029353721 0.01857803 0.027344145 -0.031103803 0.033935547
-0.040653992 0.0101956865 -0.0100237075 -0.03108453 0.033486802 0.0034945111 0.008564936 0.014253957
0.038099427 -0.0028738324 -0.010667684 -0.041672487 -0.01805884 0.025412962 -0.0076799067 0.031165587
0.029560689 -0.03216805 0.035265204 0.03731334 -0.0022782835 -0.03604875 0.03585208 -0.02125003
-0.0031490838 0.01659595 -0.01518101 -0.03395788 0.041353438 0.03329074 -0.0041835965 -0.03307797
-0.02363436 0.033085015 -0.025273994 -0.0004081307 0.029312728 -0.0006100698 0.03723665 0.015845997
-0.034437586 -0.017440116 -0.0037326107 -0.010565479 0.04298712 -0.02760314 0.0133376755 0.039739873
-0.031627964 -0.037216682 -0.033402883 -0.012724883 0.04147708 0.018663298 0.0016727701 0.010460875
0.023896197 -0.029996853 -0.00030669547 -0.002179506 0.012792751 -0.031453833 -0.017720666 -0.028042808
-0.05131179 -0.03877397 -0.022111692 0.015816113 0.014688328 -0.01636763 0.018178664 -0.026134154
-0.021760635 0.010128293 -0.028859248 -0.015815176 0.016974645 -0.014068723 -0.036289733 0.02157467
-0.0006215419 0.003122007 -0.0271241 0.020496046 0.008546074 -0.03517052 -0.022528792 -0.0026208344
0.027154656 0.034694325 0.03737276 0.034638353 -0.008868698 -0.038441036 -0.029865438 -0.023043105
0.027155725 -0.035460148 -0.014772644 -0.009742408 0.023072034 -0.018607274 -0.042235825 0.024297858

embed.encoder.9.weight f4 [128]
00000000: 7ecd a73f 698f a83f e9c2 973f f8ed a73f
00000010: c59d 923f bf46 b03f de7d a43f a95c aa3f
00000020: 5d91 a53f 50a1 ac3f 1b3d ad3f a56a b13f
00000030: 74b1 a23f 7dec a43f 4e8c a33f 5ad5 953f
00000040: 527d a63f db94 9c3f 3f8b a13f e2d3 ab3f
00000050: b389 a53f 1068 ad3f 7ae1 933f dde7 973f
00000060: d21b b73f 3080 963f e9e8 9e3f bbe9 a23f
00000070: 02be a53f 20fe a33f e063 b13f baab b33f
00000080: 5109 9d3f f943 b73f 1cca a03f 45a3 963f
00000090: d2bb b23f ada7 943f 652d a33f c9be af3f
000000a0: d7b8 aa3f f789 a63f 3707 a23f 186d 9c3f
000000b0: e8c7 a83f ebf9 a33f 0fa6 ad3f 080f ab3f
000000c0: 423b 963f 3e64 b33f 3234 8d3f 8865 ac3f
000000d0: cfda a43f 84b7 903f 0876 8f3f a809 a03f
000000e0: b609 913f a7c8 8f3f c30c 993f 38c1 943f
000000f0: 3c5c a73f f403 a23f 10a3 9d3f 28cf 933f
00000100: 6ea0 a73f 8264 b03f b315 b03f 01fe ad3f
00000110: ad92 9f3f 4607 9d3f f43e 963f 45a7 a13f
00000120: 014c aa3f 0d7a a73f 7af4 ac3f 3c60 ac3f
00000130: 6bdf a63f 0af8 9b3f 4a35 a53f 9792 ac3f
00000140: 5113 a23f 405f a13f 4b6d a03f 0700 a33f
00000150: f45f a63f 338d a93f f68c a43f 1e2d a53f
00000160: e8b2 923f 9d1c 9e3f 41a3 a83f 5389 a23f
00000170: 1afc a93f 38b6 b43f e136 a23f fb0d 923f
00000180: 6137 a23f 5ed6 a43f a60a ab3f 2699 a33f
00000190: 9a83 ae3f 7c72 a53f 085b a33f 5a4c 9e3f
000001a0: 33c3 ae3f e1af b33f 8591 ae3f c527 9d3f
000001b0: 0804 953f c8bb 983f 7c7a b53f 72d5 af3f
000001c0: d33a a03f 37df a13f 9b3d a83f 2446 9b3f
000001d0: 736d b33f 82e1 ab3f fc9c 9b3f 515d ad3f
000001e0: 0884 b93f a46b a73f 88fc a43f a076 af3f
000001f0: bce7 aa3f fb24 af3f 3726 b13f b58f 9b3f
1.3109586 1.3168765 1.1856357 1.3119497 1.1454397 1.377159 1.2850912 1.3309528
1.2934986 1.3486729 1.3534273 1.386067 1.2710404 1.288467 1.2777193 1.1705735
1.3006995 1.2232927 1.262062 1.3424037 1.2932647 1.3547382 1.1553185 1.1867634
1.4305365 1.175787 1.2414829 1.2727579 1.2948611 1.2811928 1.3858604 1.4036782
1.2268468 1.4317619 1.2561679 1.1768576 1.3963568 1.161367 1.2748228 1.3730098
1.3337659 1.3010854 1.2658452 1.2220793 1.3186007 1.2810644 1.3566302 1.3363962
1.1736834 1.4014966 1.1031554 1.3468485 1.2879275 1.1306005 1.1207895 1.2502947
1.1331089 1.1233109 1.195702 1.1621466 1.3075023 1.2657456 1.2315388 1.1547594
1.3095834 1.3780673 1.3756622 1.3593141 1.2466637 1.2267845 1.1737962 1.2629172
1.3304445 1.3084122 1.3512108 1.3466868 1.3036932 1.218507 1.2906888 1.3482236
1.2662145 1.2607193 1.2533354 1.2734383 1.2998033 1.3246216 1.2855518 1.2904394
1.1460848 1.2352482 1.3174821 1.2698158 1.328006 1.4118109 1.2672998 1.1410517
1.267315 1.287792 1.3362625 1.2781112 1.3633912 1.2925563 1.2762156 1.2367051
1.365332 1.4038049 1.3638159 1.2277762 1.1641855 1.1932306 1.4178004 1.3737013
1.2517952 1.2646245 1.31438 1.213078 1.4017776 1.3428195 1.2157283 1.3544103
1.4493418 1.3079724 1.2889566 1.3708076 1.335197 1.368316 1.3839787 1.2153231

embed.encoder.9.bias f4 [128]
00000000: fd77 993e 421b 7b3e d923 4f3e d890 8d3e
00000010: 4bd3 023e bdfd c53e e126 4f3e 3bd4 853e
00000020: 2b67 483e e5a4 d43e a31f d53e c2ba 993e
00000030: 218c 6b3e 76b0 843e e858 5c3e 7a0c 233e
00000040: ae45 2a3e 0ba4 883e 11dd 843e b45b 883e
00000050: f8ba c63e c776 cb3e 9abb 573e b88d 883e
00000060: 3354 923e a36e 7f3e 3d39 843e 5f75 813e
00000070: 7b7b 283e 1b29 823e 8084 ad3e 07ff 7b3e
00000080: 4fc5 5b3e 2346 b33e ff1d 473e 92e0 273e
00000090: f134 ac3e 8d49 863e f266 a03e 9e6c 963e
000000a0: ff64 843e f979 843e ea9d 743e d66d 1d3e
000000b0: ef10 493e 29f5 4f3e 74f2 9f3e aaea 5a3e
000000c0: 6aab 6e3e b778 b23e 3e3c 193e ed37 bc3e
000000d0: 5280 8d3e 545d 143e 2970 353e c96d 8f3e
000000e0: 936e 723e 3737 2b3e fe45 1c3e 73a5 ee3d
000000f0: 5554 643e f157 9e3e fa78 2a3e 3c61 123e
00000100: dff6 943e 043a ab3e 7c96 bb3e b513 be3e
00000110: d603 723e 23c1 593e 7a41 f03d 5cca 8d3e
00000120: 00a0 8f3e dca8 b23e d6eb 6b3e 6f0a b83e
00000130: 13bc 9d3e 365e 283e eaff d13e d0cf af3e
00000140: b993 8f3e e7cb 5a3e 7cef 833e 25b5 133e
00000150: b45b 443e fda9 8d3e 7f7c b33e 4624 8a3e
00000160: 87d6 003e 8a93 7d3e 03a8 3f3e aa3b 853e
00000170: ac9c 793e f839 863e 0682 2d3e d1df 363e
00000180: 9ab1 363e 40a6 493e eaa0 893e ea8a 893e
00000190: 916f 953e 72c8 4a3e 59e2 363e 645a 4f3e
000001a0: f1a6 c13e 80f3 bd3e 5c0d c13e f7a8 743e
000001b0: b40f 0b3e 78f7 473e be6f 893e 2cfe 983e
000001c0: 05b7 913e 6d7f b23e 8443 a23e c504 8d3e
000001d0: 4197 9a3e 52d0 803e c400 843e c4c8 833e
000001e0: cd1b 9a3e 72c7 4b3e 7e66 753e f65f 833e
000001f0: ac8f a53e e612 9d3e d5e1 b93e 5913 353e
0.29974356 0.24522117 0.20228519 0.2764957 0.12775914 0.3867015 0.20229675 0.26138481
0.19570605 0.41532055 0.416257 0.30025297 0.23002674 0.2591588 0.2151829 0.15922728
0.16628143 0.26687655 0.2594991 0.26632464 0.3881452 0.39739057 0.21067658 0.26670623
0.28579864 0.24944548 0.2582492 0.2528486 0.16453354 0.25421986 0.33890152 0.24609004
0.21461986 0.35014448 0.19445036 0.1639426 0.3363414 0.2622799 0.3132854 0.29379743
0.25858304 0.25874308 0.23888364 0.1537393 0.19635366 0.20308365 0.31239665 0.2137858
0.23307577 0.34857723 0.14964387 0.36761418 0.27636963 0.14488727 0.17718567 0.28013447
0.23674993 0.16720282 0.15261075 0.11652651 0.22297795 0.3092647 0.16647711 0.14294904
0.29094598 0.334427 0.36638248 0.3712441 0.23634276 0.21265082 0.11731239 0.2769345
0.28051758 0.34894454 0.23039183 0.3594546 0.30807552 0.16442189 0.4101556 0.34338236
0.2804239 0.21366845 0.2576865 0.1442457 0.19175607 0.27668753 0.3505592 0.269808
0.12581836 0.24763313 0.18716435 0.26022083 0.24376172 0.26216102 0.16944131 0.17858817
0.17841187 0.19692326 0.2688058 0.26863796 0.2918668 0.19803026 0.17859782 0.20249325
0.3782268 0.37099838 0.37705505 0.2389258 0.13580209 0.19527996 0.26843065 0.29881418
0.28459945 0.34862843 0.31692135 0.275427 0.30193523 0.25158936 0.25781834 0.2573911
0.30099335 0.19900301 0.23964879 0.2565915 0.32336175 0.3067848 0.3630511 0.17683162

embed.encoder.9.running_mean f4 [128]
00000000: b8ce d33f c8ba 1ebe 5d77 3740 38c2 fbbe
00000010: a6ea b63d db56 82bf b31c 13bf a4e3 35c0
00000020: a361 18c0 24a1 6fbd 4680 0cbf e1ed 3f40
00000030: b060 7f3e 100e 1640 4ade ae3f ea9d 983e
00000040: c9ef 23c0 39af ed3d cd23 1fbe fcd0 263f
00000050: 14e7 21bf 720b 3e3e 5149 76bf 65a6 de3f
00000060: 17fb a93e c8f9 1ac0 3649 20c0 1f8f 363e
00000070: 3b62 babe 6aa2 3ebf 2de3 65bc 4758 c5bf
00000080: e4a9 56bf c679 b5be fb29 53c0 52ce d93f
00000090: fb3d fa3e 6152 ae3f 6d89 99be aa04 af3f
000000a0: edc4 ec3e edd8 263d 00cc adbf 592e 903d
000000b0: c3ce 39bf 21fc 61bf 7f3e ac3d 2ec2 44bf
000000c0: 33f2 1440 231d c13f 826b f7be aa0b 82c0
000000d0: c615 51c0 4f61 76bf c35c 2fbf a340 4cbe
000000e0: 4bc0 f4be 2767 32bf 15d2 14be 4a6d 0abf
000000f0: 6374 98be 2279 32c0 1fd7 dcbe 6110 063e
00000100: 4437 29c0 d16f c43e 5148 7b3f 6709 7d3f
00000110: f029 5bbc 4c45 923e 21e3 eebd c4e9 c33e
00000120: dede 3a3f 6dce 51bf 2e5a ddbf 01b9 a43f
00000130: adcc 633e 84b1 c1bd cc04 503f a418 ff3e
00000140: 9732 b33e 1819 08c0 03f5 58bf a731 863f
00000150: f1f6 4abf e504 013f 5f5a dbbf beb4 4abf
00000160: 2378 0b3f ce42 90be 6f03 c63f c06f f5be
00000170: 5dda b93e 9892 97bf 5485 35be eb02 81bf
00000180: 488c 313f 31e6 ccbf 8907 3e40 0c73 14c0
00000190: 0e9d 353f 1baf dabe fc9f 15c0 cdfe 98be
000001a0: 59da 733f dc68 f2bf 6c6e 0c40 39bb 703f
000001b0: 4b5d 27be d7a9 07bf e91e cbbf b538 48bd
000001c0: dcdb 18c0 2bab c3bf 171f 0d3f 023c 2d3e
000001d0: 3fbc fd3e 54c0 1740 c9d8 4fbf 1306 0740
000001e0: 9009 abbf ecc6 a13e c74f 72bf 5bb0 6e3f
000001f0: 06b7 4a3f 1886 e83f 9a24 5f3f c998 93bf
1.654746 -0.15500939 2.8666604 -0.49171615 0.089314744 -1.0182756 -0.57465667 -2.842019
-2.3809593 -0.058503285 -0.5488323 2.998894 0.24939227 2.3446083 1.3661587 0.2980798
-2.5615103 0.11605687 -0.15541 0.65162635 -0.6324322 0.18559054 -0.9620562 1.739453
0.3319938 -2.4214954 -2.5044684 0.17828034 -0.3640307 -0.74466574 -0.014031214 -1.5417565
-0.8385298 -0.35444468 -3.2994373 1.7016089 0.48875412 1.361889 -0.2998766 1.3673298
0.46243992 0.04073422 -1.3577881 0.0704009 -0.7258112 -0.88275343 0.08410358 -0.76858795
2.3272827 1.5087017 -0.4832421 -4.063924 -3.266954 -0.9624223 -0.6850092 -0.19946532
-0.47802958 -0.6968865 -0.14533265 -0.5407301 -0.29776296 -2.7886434 -0.43132874 0.13092186
-2.6439981 0.3836656 0.9815722 0.9884247 -0.013376698 0.28568494 -0.11664415 0.38264287
0.7299632 -0.81955606 -1.7293146 1.2868959 0.22246046 -0.094576865 0.8125732 0.49823487
0.34999534 -2.1265316 -0.8474886 1.0483903 -0.7928305 0.50398093 -1.7136954 -0.7918204
0.5448019 -0.28175968 1.5469798 -0.4793682 0.3629941 -1.1841612 -0.17726642 -1.0079015
0.6935468 -1.6007749 2.96921 -2.319522 0.7094277 -0.4271172 -2.3378897 -0.29881898
0.9525505 -1.893825 2.1942396 0.9403568 -0.16344182 -0.5299353 -1.5868808 -0.048882205
-2.3884192 -1.5286611 0.55125564 0.16917422 0.49557683 2.3711138 -0.8119016 2.1097457
-1.3362293 0.31597078 -0.9465298 0.9323785 0.7918552 1.8165922 0.87165225 -1.1531001

embed.encoder.9.running_var f4 [128]
00000000: 26f7 8840 27ad 7d40 200b 8d40 eccd 9c40
00000010: 0ad5 c640 84ed 6240 a1a1 a540 c79c 2d40
00000020: 57e7 4d40 4e3d 6240 f1f9 8540 0cf7 7440
00000030: a295 b440 425e 1840 0848 3140 77dd 8640
00000040: adf2 3940 c3e3 ad40 dec1 8f40 9851 5140
00000050: f256 8040 6383 3e40 4055 6f40 8755 7340
00000060: ce60 6340 be74 a440 41b0 ab40 e32f 7040
00000070: ab9c 6f40 1d1f c340 c42e 3840 d15a 5340
00000080: 1eed 6e40 fe31 4140 c4b6 7d40 ab9b 8840
00000090: f08b 8840 a018 8f40 f549 9240 f18e 8a40
000000a0: c94f a540 1b71 6140 f74e 9640 d251 6640
000000b0: b08e 4140 0ac2 2940 55ae 7940 5c9f 4940
000000c0: 7c22 a440 3315 7540 bec5 dc40 4440 3d40
000000d0: 7a9f 8340 e484 d440 1be1 9b40 bb64 d240
000000e0: fc09 ad40 5d7c c240 8c71 6540 bedb ad40
000000f0: 6d79 d640 046f ae40 e743 5340 3169 7940
00000100: d662 8040 9728 8240 cdae 7640 b5c6 7b40
00000110: 931e 7040 9831 cc40 f629 6740 3762 2c41
00000120: d1a8 6040 9aaf 6540 0430 7340 1f46 6d40
00000130: 2166 c140 83d0 8f40 7036 6840 5935 1d40
00000140: 4d27 9b40 7def 0e40 8527 ac40 bd2a 4b40
00000150: 30d3 8740 fd31 8d40 bf38 7d40 7dee a240
00000160: eeda 7a40 d13d 9940 96c9 7e40 5846 a640
00000170: 1577 8b40 cb07 7840 b79b 2140 c8ac 5840
00000180: d576 1e40 2444 1040 d90a 9340 67b1 5940
00000190: 123a c040 d06f c040 312a 6540 4659 7340
000001a0: dfec 8840 461d 8540 610f 8940 5047 ec40
000001b0: 4818 8c40 5fc2 4a40 f9fe 5640 9bef c540
000001c0: 5d24 9b40 0893 7540 45f4 5e40 4841 be40
000001d0: 4d3b 9a40 75d0 3940 0f69 8e40 0c9f 7640
000001e0: 0707 8440 e7b7 a940 6628 bd40 cbcb b840
000001f0: 7b3f 8640 0c31 5540 75a9 6e40 5362 1c40
4.2801695 3.9636934 4.407608 4.900137 6.2135057 3.5457468 5.17598 2.712694
3.2172449 3.5349917 4.1867604 3.8275785 5.6432657 2.380753 2.7700214 4.2145343
2.9054368 5.434053 4.4924154 3.270605 4.0106134 2.9767692 3.7395782 3.8020952
3.5527835 5.1392508 5.3652654 3.7529228 3.7439373 6.097548 2.8778543 3.302418
3.7332225 3.0186763 3.9642801 4.2690024 4.267082 4.471756 4.571528 4.329949
5.1659894 3.5225284 4.6971393 3.598744 3.024334 2.6524682 3.9012654 3.1503515
5.1292095 3.829419 6.8991385 2.9570475 4.1132174 6.641222 4.8712287 6.574796
5.407469 6.077681 3.5850554 5.433074 6.7023225 5.4510517 3.3010194 3.8970454
4.012065 4.067455 3.854419 3.934003 3.751866 6.381054 3.611936 10.773978
3.5103037 3.5888429 3.7998056 3.7074049 6.043717 4.494203 3.6283226 2.456381
4.8485475 2.2333672 5.379824 3.1744835 4.2445297 4.412352 3.9565885 5.0916123
3.9196124 4.788796 3.9810538 5.196087 4.3582864 3.8754756 2.525129 3.3855457
2.476003 2.254159 4.595074 3.4014528 6.0070887 6.013649 3.5807002 3.8023238
4.278915 4.1598234 4.2831273 7.383705 4.377964 3.1681135 3.3593123 6.1854987
4.848189 3.837099 3.483659 5.945469 4.819739 2.9033482 4.4503245 3.8534575
4.125858 5.303699 5.9111814 5.774877 4.195249 3.3311186 3.7290928 2.4435012
