protonetepoch20.pt (torch, 463874 bytes, 24 tensors)

embed.encoder.0.weight f4 [64, 3, 3, 3]
0	0xbdddae43	-0.108242534
1	0x3e2ae47b	0.16688721
2	0xbe14d7b9	-0.14535417
3	0xbe1ac68b	-0.151148
4	0xbdaebaef	-0.085317485
5	0x3d6f2056	0.058380447
6	0x3bb0da93	0.00539715
7	0xbc1e28a6	-0.009653246
8	0x3dc6ea30	0.097126365
9	0x3df97b6e	0.121817455
10	0xbdc4fa28	-0.09618026
11	0x3ca38698	0.01996164
12	0x3dd563ed	0.1041945
13	0x3dd12852	0.102127686
14	0xbd753208	-0.059862167
15	0x3e2762fc	0.16346353
16	0xbdff5adc	-0.12468502
17	0xbdee77bd	-0.11643932
18	0xbe20b83c	-0.1569528
19	0xbe2a573e	-0.16634843
20	0xbb5a7cf2	-0.0033338633
21	0x3bcf9da6	0.006335932
22	0xbe877277	-0.26454517
23	0xbc8e2e30	-0.017356008
24	0xbd1331bd	-0.035936106
25	0xbe27b163	-0.16376261
26	0xbe3e0254	-0.18555576
27	0xbe697051	-0.22796752
28	0xbc12f4ff	-0.008969544
29	0xbe493791	-0.19650103
30	0x3ce45e65	0.027877042
31	0xbe13561b	-0.14388315
32	0xbdd33c9a	-0.10314293
33	0xbdb5a034	-0.08868447
34	0xbda0ba7d	-0.0784807
35	0x3da109ee	0.07863222
36	0xbbdaacf0	-0.006673448
37	0x3c94db77	0.018171055
38	0x3b163f89	0.0022926053
39	0x3d174d01	0.03693867
40	0x3dcc7daa	0.09984906
41	0x3e038f91	0.12847735
42	0x3cebe914	0.028797664
43	0x3de701dd	0.11279652
44	0x3e5c6b0a	0.21525207
45	0xbcefed8a	-0.029288072
46	0xbe0629d3	-0.13101892
47	0x3df72211	0.120670445
48	0xbe07babe	-0.1325483
49	0x3d87331c	0.06601545
50	0x3cd4cfc1	0.025977971
51	0x3d7b91e5	0.061418433
52	0xbdb03aac	-0.08604941
53	0xbd342e00	-0.04398918
54	0xbe0dbebb	-0.13842289
55	0x3e15fff2	0.14648417
56	0xbd045b24	-0.03231348
57	0x3df33331	0.11874998
58	0x3d93635b	0.07196685
59	0x3e18ce00	0.14922333
60	0xbe3d7981	-0.18503381
61	0xbd50f7a5	-0.051017422
62	0xbdf41f2f	-0.1192001
63	0xbda0e251	-0.078556664
64	0xbd944db6	-0.07241385
65	0xbe5d3568	-0.21602404
66	0xbdcd6527	-0.10029059
67	0x3d37903a	0.04481528
68	0x3d7767f7	0.060401883
69	0xbe455989	-0.19272436
70	0x3cd6d4f2	0.026224587
71	0x3d09fcd9	0.0336884
72	0xbd104071	-0.035217706
73	0x3e1b64ca	0.15175167
74	0xbd1b72ae	-0.037951164
75	0x3e2dcc60	0.16972494
76	0x3d8fa58f	0.07014
77	0x3e26af8a	0.162779
78	0xbd933634	-0.07188073
79	0x3e2b3f19	0.16723289
80	0xbdb0f7c6	-0.08641009
81	0xbd4dd9f4	-0.050256684
82	0xbd86944f	-0.06571256
83	0x3dbeeb83	0.09322264
84	0x3dd1c7db	0.102431975
85	0xbdba5b49	-0.090994425
86	0x3deb19cd	0.114795305
87	0x3dd97159	0.106173225
88	0xbe0d6d27	-0.1381117
89	0x3d59221c	0.053011045
90	0xbcc146a8	-0.023593262
91	0xbe2b71ce	-0.16742632
92	0xbb7b9edc	-0.0038394248
93	0x3d26aa39	0.04068968
94	0x3e13f701	0.14449693
95	0xbd9d254b	-0.07673129
96	0x3e7107dd	0.23538156
97	0xbd03c0e2	-0.03216637
98	0xbe325a64	-0.17417294
99	0xbdf1271f	-0.1177504
100	0xbe4528b5	-0.1925381
101	0xbd2ce98a	-0.042214908
102	0xbdd70f14	-0.10500923
103	0x3ade26ba	0.0016948797
104	0xbb3f790b	-0.0029216434
105	0x3e1c90bf	0.15289591
106	0x3d9c62d3	0.07636037
107	0xbdcbd28a	-0.099522665
108	0x3e119e36	0.14220509
109	0xbe0604d4	-0.1308778
110	0x3d9318f8	0.07182497
111	0x3df514da	0.11966868
112	0x3e491df7	0.19640337
113	0xbd6e3d12	-0.05816371
114	0x3def9dd2	0.11700024
115	0x3e479105	0.19488914
116	0xbcb00990	-0.021488935
117	0x3d731932	0.0593502
118	0xbdce63f0	-0.10077655
119	0xbe35b538	-0.1774491
120	0xbde19887	-0.110154204
121	0xbdf0322e	-0.11728321
122	0xbd94564d	-0.07243023
123	0x3e27b86d	0.16378947
124	0xbe47d7c4	-0.19515902
125	0xbdd359fc	-0.103198975
126	0x3e18c743	0.14919762
127	0x3e0f9f1b	0.14025538
128	0x3ce290df	0.02765697
129	0x3d019ee9	0.03164569
130	0xbddde771	-0.108351596
131	0x3e30781c	0.17233318
132	0xbca033f0	-0.019556016
133	0x3c8386ad	0.01605543
134	0xbe46ff36	-0.19433293
135	0x3d3ead56	0.046552025
136	0x3d93d4aa	0.07218297
137	0xbe45d6da	-0.1932024
138	0xbdd8e923	-0.10591342
139	0xbdcff3db	-0.101539336
140	0x3e37102f	0.17877267
141	0x3c8e0c48	0.01733984
142	0xbd89688c	-0.06709394
143	0xbe313afc	-0.17307657
144	0xbc34c74b	-0.011033843
145	0x3d7f03b3	0.062259387
146	0x3e111e3e	0.14171693
147	0xbd8ee23f	-0.06976747
148	0xbd174041	-0.03692651
149	0x3e6d23d6	0.23158202
150	0xbdb00ba3	-0.085959695
151	0xbc2413be	-0.0100144725
152	0x3d93994f	0.07206976
153	0xbd8d0c4f	-0.06887113
154	0xbc807cbe	-0.015684482
155	0x3d3a77a0	0.04552424
156	0xbd765bcb	-0.060146134
157	0x3d4a1d06	0.049344085
158	0x3e0dcfa1	0.13848735
159	0x3dbb85af	0.091563575
160	0xbe416e6a	-0.18889776
161	0xbe163c04	-0.14671332
162	0xbd81dbda	-0.063407615
163	0xbe4cbc11	-0.19993617
164	0x3e0d9323	0.1382566
165	0xbd01478b	-0.03156237
166	0xbdfa8582	-0.12232496
167	0xbe2b0b7a	-0.16703597
168	0x3d508a68	0.050913244
169	0xbe5cf4e8	-0.215778
170	0xbddd623f	-0.108097546
171	0x3dd32431	0.10309637
172	0x3e0ade6f	0.13561414
173	0x3dc8a949	0.097979136
174	0x3d2d4eaa	0.042311348
175	0x3d76f231	0.060289565
176	0x3da57a46	0.080799624
177	0x3e2a91eb	0.16657226
178	0x3dcd000c	0.100097746
179	0xbdd3314e	-0.103121385
180	0x3e209a22	0.15683797
181	0xbcd77270	-0.026299685
182	0x3ddb7747	0.1071611
183	0x3db785b5	0.089610495
184	0xbe16ad85	-0.1471463
185	0x3d77420a	0.060365714
186	0xbe2dbe04	-0.16967016
187	0xbd48825d	-0.04895245
188	0x3d5d74fd	0.054066647
189	0x3d94a0e8	0.07257253
190	0xbda474b4	-0.08030072
191	0xbdcb6bf7	-0.09932702
192	0x3e2e9338	0.17048347
193	0x3a4d6d97	0.00078364596
194	0x3d308402	0.043094642
195	0xbd313310	-0.043261588
196	0x3e1398a9	0.14413704
197	0x3cbb0766	0.022830676
198	0x3c2463aa	0.010033527
199	0xbd0960df	-0.03353965
200	0x3cbef041	0.023307921
201	0x3dfa8993	0.122332714
202	0xbc5e1fe9	-0.013557413
203	0xbdddfabc	-0.108388394
204	0xbdd45d26	-0.10369329
205	0x3e0d1629	0.13777985
206	0x3d9850e5	0.074373044
207	0xbe5429cb	-0.20719068
208	0xbe654791	-0.22390582
209	0xbe4a71e8	-0.19770014
210	0xbe053cfb	-0.13011543
211	0x3d448d16	0.047986113
212	0xbe110b96	-0.14164576
213	0x3d146a21	0.036234025
214	0x3e32af36	0.1744965
215	0x3e8aa318	0.27077556
216	0xbbddc0e4	-0.006767379
217	0xbd108143	-0.035279524
218	0x3c8b69e5	0.017018268
219	0xbd2a1982	-0.041528232
220	0x3d68ae0f	0.05680662
221	0xbd2d0aeb	-0.04224674
222	0x3dd3d9a8	0.10344249
223	0xbe091423	-0.13386588
224	0xbe374a48	-0.1789943
225	0xbd843dc7	-0.064570956
226	0xbe61dd36	-0.22057042
227	0xbe720290	-0.2363379
228	0xbe3a4574	-0.18190557
229	0xbe5c19a7	-0.2149416
230	0x3dc5410b	0.096315466
231	0xbcb14274	-0.021638133
232	0xbe2bfc70	-0.16795516
233	0xbd82e06a	-0.0639046
234	0x3d514059	0.051086757
235	0x3cd4029d	0.025880152
236	0x3d0f2767	0.034949686
237	0xbcedef05	-0.029044637
238	0x3db9f604	0.09080127
239	0x3e461222	0.19342855
240	0xbc55c35a	-0.013047064
241	0x3da422df	0.08014464
242	0xbb30a613	-0.0026954457
243	0xbe2d82fe	-0.16944501
244	0xbca04834	-0.01956568
245	0x3dac2bc9	0.08406789
246	0xbbc3c1ac	-0.005974015
247	0xbd5cbcf8	-0.053891152
248	0x3dba6855	0.09101931
249	0xbe1422ba	-0.14466372
250	0xbde451a4	-0.11148384
251	0xbe0dc5dd	-0.1384501
252	0xbe6bb938	-0.23019874
253	0xbdd2b0ce	-0.10287629
254	0xbe15f6b3	-0.1464489
255	0xbd74ce92	-0.059767313

embed.encoder.0.bias f4 [64]
0	0x3e4dbab7	0.20090757
1	0xbe02ba84	-0.12766463
2	0x3b23412f	0.0024910679
3	0xbc008797	-0.007844827
4	0x3b506892	0.003180061
5	0xbe100ef0	-0.14068198
6	0x3d82df3c	0.06390235
7	0x3e29af30	0.16570735
8	0x3e4beb9c	0.19914097
9	0x3d0773f3	0.033069562
10	0x3e120173	0.14258365
11	0xbdc02e6b	-0.093838535
12	0x3b956250	0.004558839
13	0xbe003bca	-0.12522808
14	0x3b8b99ab	0.004260262
15	0xbd4dfb2d	-0.050288368
16	0xbbb3ca1c	-0.00548674
17	0xbdedb429	-0.116066284
18	0xbcc297fa	-0.023754109
19	0x3c405c8b	0.011740814
20	0x3d6f91c0	0.058488607
21	0x3c8b4610	0.017001182
22	0x3e562255	0.20911534
23	0x3d93c78b	0.07215794
24	0xb994479c	-0.00028282113
25	0x3ddbba07	0.10728841
26	0xbe3f5549	-0.18684877
27	0x3d12f052	0.03587372
28	0x3d6d32fb	0.057909947
29	0xbdbb567a	-0.091473535
30	0x3db1c876	0.08680813
31	0xbdd3a852	-0.10334839
32	0x3e02d7f8	0.12777698
33	0xbda50d34	-0.08059159
34	0xbe10da4e	-0.14145777
35	0x3df05638	0.11735195
36	0x3ac6e0f7	0.0015173246
37	0x3bd096be	0.006365626
38	0x3da45cb5	0.08025495
39	0x3c6f2a1c	0.014597442
40	0xbd8eb876	-0.06968777
41	0x3e240a9f	0.16019677
42	0xbe31640c	-0.17323321
43	0x3d6cabff	0.057781216
44	0x3dd533c3	0.104102634
45	0x3d9b69fd	0.07588575
46	0xbd64fa89	-0.05590299
47	0x3c82546a	0.015909392
48	0x3e312d9e	0.17302558
49	0x3deae0de	0.11468671
50	0x3e4e0071	0.20117356
51	0x3d9ebeab	0.07751211
52	0x3e2150f9	0.15753545
53	0x3dd6482b	0.10462984
54	0xbe3f6422	-0.18690541
55	0x3dfc9a75	0.12334148
56	0xbc064a8f	-0.008196487
57	0x3db996ed	0.0906199
58	0xbe52955f	-0.20564793
59	0x3dcdc17c	0.1004667
60	0x3e45b78b	0.19308297
61	0x3ddbb85d	0.10728524
62	0x3deede83	0.116635345
63	0xbdf31003	-0.11868288

embed.encoder.1.weight f4 [64]
0	0x3f6499a4	0.89296937
1	0x3f5f5539	0.87239414
2	0x3f7949c1	0.97378165
3	0x3f6fb4a0	0.93634987
4	0x3f7bd113	0.98365897
5	0x3f674d6c	0.9035251
6	0x3f89d9b1	1.0769559
7	0x3f6dd0f3	0.92896956
8	0x3f7da13c	0.9907415
9	0x3f60d3c9	0.8782316
10	0x3f74b35e	0.9558619
11	0x3f857088	1.0424967
12	0x3f5bd89e	0.85877407
13	0x3f907ab4	1.1287446
14	0x3f6e0221	0.92972
15	0x3f69a3d8	0.9126563
16	0x3f58801f	0.845705
17	0x3f8858a9	1.0652057
18	0x3f7ed6ad	0.9954632
19	0x3fa1e8c1	1.2649156
20	0x3f6455ca	0.89193404
21	0x3f7d8e1d	0.9904497
22	0x3f622b30	0.8834715
23	0x3f7b513e	0.9817084
24	0x3f62d7bd	0.8861044
25	0x3f7c381a	0.98523104
26	0x3f615fd0	0.88036823
27	0x3f70a944	0.9400828
28	0x3f824a18	1.0178862
29	0x3f80300c	1.0014663
30	0x3f79cf9d	0.9758242
31	0x3f745010	0.95434666
32	0x3f6751c4	0.9035914
33	0x3f6f37b8	0.93444395
34	0x3f507e35	0.81442577
35	0x3f658d74	0.89668965
36	0x3f739b03	0.95158404
37	0x3f6b5754	0.9193013
38	0x3f90e339	1.1319343
39	0x3f8c5a94	1.0965142
40	0x3f6c0db5	0.92208415
41	0x3f5a020b	0.8515937
42	0x3f807d78	1.003829
43	0x3f92f658	1.1481428
44	0x3f5acd4f	0.85469526
45	0x3f9c15ff	1.2194213
46	0x3f926544	1.1437154
47	0x3f64fae3	0.8944532
48	0x3f7ce598	0.9878783
49	0x3f745bf8	0.95452833
50	0x3f7ef89a	0.99598086
51	0x3f83995a	1.0281174
52	0x3f85182c	1.0398002
53	0x3f836494	1.0265069
54	0x3f7ec97c	0.9952619
55	0x3f7c2cc1	0.9850579
56	0x3f6327e5	0.8873275
57	0x3f6f5cc2	0.9350091
58	0x3f68c775	0.9092935
59	0x3f883596	1.0641353
60	0x3f55f1fd	0.8357237
61	0x3f652d05	0.8952182
62	0x3f6d63c8	0.9273038
63	0x3f88b188	1.0679178

embed.encoder.1.bias f4 [64]
0	0xbdffd9c3	-0.124927066
1	0xbc561758	-0.013067089
2	0x3be16e82	0.0068796286
3	0xbda7f054	-0.08200136
4	0x3dcc9b4a	0.099905565
5	0xbdac291e	-0.0840628
6	0xbba4dff5	-0.0050315806
7	0xbe167f34	-0.14696962
8	0xbe3ba4f7	-0.18324648
9	0xbe1b91cd	-0.15192337
10	0xbe2328a4	-0.15933472
11	0x3d3ffffe	0.046874993
12	0xbdb0ab39	-0.08626408
13	0x3d1e1406	0.038593315
14	0xbda13629	-0.07871658
15	0xbe092e4f	-0.13396572
16	0xbe19d302	-0.150219
17	0xbdef14ff	-0.116739266
18	0x3b686e7a	0.003546624
19	0x3d3e6c93	0.046490263
20	0xbdb73690	-0.08945954
21	0xbde3f463	-0.111305974
22	0xbdef803d	-0.116943814
23	0xbd309548	-0.043111116
24	0xbde91ca3	-0.11382415
25	0x3c8d3923	0.017239159
26	0xbd947658	-0.07249135
27	0x3d2b66fc	0.04184626
28	0x3ce7ec4f	0.028310923
29	0x3df4ee67	0.11959534
30	0xbca3cf7d	-0.019996399
31	0xbde4162b	-0.11137041
32	0xbdd3dd41	-0.10344935
33	0xbe10807e	-0.14111516
34	0xbe39acd9	-0.18132342
35	0xbdca918c	-0.09891042
36	0xbdb8e30a	-0.09027679
37	0xbd85045b	-0.06494971
38	0x3e0b3ace	0.13596651
39	0xbcb48da1	-0.02204019
40	0x3d504541	0.050847296
41	0xbd9d742e	-0.07688175
42	0x3b16fc31	0.0023038501
43	0x3dec7556	0.115458176
44	0xbe2b5a91	-0.16733767
45	0x3b8f60cb	0.0043755523
46	0xbdf83b8b	-0.12120732
47	0xbd968120	-0.073488474
48	0xbd03642d	-0.032077957
49	0x3d122a99	0.035685156
50	0x3ddecb6d	0.10878644
51	0xbce2396b	-0.02761527
52	0x3cfc6ebc	0.030814521
53	0xbd2614c5	-0.04054715
54	0x3e003d5e	0.1252341
55	0x3e0d5473	0.13801746
56	0xbe444dad	-0.19170256
57	0xbd947609	-0.07249076
58	0xbdb68644	-0.08912328
59	0x3da4a20e	0.08038722
60	0xbe36d89b	-0.17856066
61	0xbdfe2b7e	-0.12410639
62	0xb9ca576e	-0.00038593583
63	0x3d3e65e1	0.046483878

embed.encoder.1.running_mean f4 [64]
0	0x3f085c83	0.5326616
1	0xbe1a0383	-0.15040402
2	0xbdad59bf	-0.08464383
3	0x3ddfbefc	0.10925099
4	0x3c807e6e	0.015685286
5	0xbdfd279d	-0.12361071
6	0xbd39ae68	-0.045332342
7	0x3e86ca5f	0.26326272
8	0x3e7c1562	0.24617532
9	0x3ded7358	0.11594266
10	0x3e512141	0.20422842
11	0xbde02f66	-0.109465405
12	0xbbc3162e	-0.0059535718
13	0xbe010a73	-0.12601642
14	0xbe39a24d	-0.18128319
15	0xbd6ba63d	-0.057531584
16	0x3ece2169	0.40259865
17	0xbe586bfe	-0.21134946
18	0xbd18b5fc	-0.03728293
19	0x3c99a418	0.018755004
20	0x3ce07480	0.027399302
21	0xbd6f538e	-0.058429293
22	0xbd7f36db	-0.062308174
23	0x3cee1ec3	0.029067403
24	0xbdae6e68	-0.08517152
25	0x3dcdedf2	0.1005515
26	0x3dc9bc2e	0.098503456
27	0x3d109e57	0.035307255
28	0x3db3bae5	0.08775882
29	0xbbedce32	-0.0072572464
30	0xbcef8f90	-0.02924326
31	0xbe34bbbc	-0.1764974
32	0x3ea154d2	0.31510025
33	0xbe1bec74	-0.15226918
34	0xbeecb4bd	-0.46231642
35	0x3e1d7a2c	0.15378636
36	0x3c5be285	0.013420706
37	0x3ed73fb0	0.42040777
38	0x3db4e060	0.08831859
39	0x3ca3aef2	0.019980881
40	0xbcd57b49	-0.026059764
41	0x3da494ac	0.080361694
42	0xbe2cc81b	-0.16873209
43	0x3d8fcdea	0.07021697
44	0x3dbaefef	0.09127795
45	0x3d86f1c0	0.06589079
46	0xbd6bcabb	-0.057566386
47	0x3d655066	0.055984877
48	0x3e01ef75	0.12689002
49	0x3def01e3	0.11670282
50	0x3e4642ef	0.1936147
51	0xbc4c6297	-0.0124746775
52	0xbdd1a6b0	-0.10236871
53	0x3e05c6fe	0.13064191
54	0xbe70383e	-0.23458955
55	0x3e00a039	0.1256112
56	0xbeb3a956	-0.3509013
57	0xbd3c0418	-0.04590234
58	0xbe1cf73e	-0.1532869
59	0x3c9075e4	0.01763434
60	0xbd55eb2a	-0.052226223
61	0x3eb0db70	0.34542418
62	0x3db09355	0.08621851
63	0xbe824e73	-0.25450477

embed.encoder.1.running_var f4 [64]
0	0x3e998628	0.29985166
1	0x3de9f0c7	0.11422878
2	0x3d64d2d8	0.05586514
3	0x3d0ebb88	0.034846812
4	0x3dc0ba21	0.09410501
5	0x3d1cfafd	0.0383253
6	0x3db071f7	0.08615487
7	0x3d482ae5	0.048869032
8	0x3e7858c3	0.2425261
9	0x3ec3248b	0.38113818
10	0x3e93415e	0.2876081
11	0x3e1645fe	0.14675137
12	0x3ba62275	0.0050700256
13	0x3c007085	0.007839327
14	0x3e3e2c38	0.18571556
15	0x3d955fc7	0.07293659
16	0x3f01df9e	0.5073184
17	0x3d3782ca	0.044802465
18	0x3dc83c09	0.09777076
19	0x3cba8c4b	0.022771975
20	0x3d327f76	0.043578587
21	0x3dc44187	0.09582811
22	0x3f0f5110	0.55983067
23	0x3d79e658	0.06101069
24	0x3da7a43e	0.081856236
25	0x3c103d42	0.0088036675
26	0x3f05bd29	0.5224176
27	0x3e37100d	0.17877217
28	0x3c6e9f2b	0.014564316
29	0x3d9b33cf	0.07578241
30	0x3d9ee3d1	0.07758296
31	0x3dee994a	0.11650331
32	0x3db21816	0.08696
33	0x3f082fe0	0.5319805
34	0x3ebe9daa	0.37229663
35	0x3c7a7ca3	0.015288505
36	0x3cf1f26a	0.029534537
37	0x3eb14cea	0.34628993
38	0x3be354a8	0.006937582
39	0x3be2e04a	0.00692371
40	0x3f36eeb0	0.7145796
41	0x3d2c7e22	0.042112477
42	0x3e272079	0.16320981
43	0x3c264231	0.010147617
44	0x3d0aecb5	0.033917148
45	0x3d0bebfa	0.03416059
46	0x3cc71937	0.024304016
47	0x3e9919c0	0.29902458
48	0x3c8ac44d	0.016939307
49	0x3c50ef0d	0.012752307
50	0x3dffb585	0.12485794
51	0x3cfd3b40	0.030912042
52	0x3e59514e	0.21222422
53	0x3bc5a38f	0.0060314606
54	0x3c4f86b3	0.012666392
55	0x3d8283ab	0.0637277
56	0x3eacf156	0.33777875
57	0x3dbc90c2	0.09207298
58	0x3e794dfd	0.24346156
59	0x3e002db3	0.12517433
60	0x3f0d26da	0.5513741
61	0x3ea5b6c3	0.32366
62	0x3e4348fb	0.19070809
63	0x3def9f4e	0.11700307

embed.encoder.4.weight f4 [64, 64, 3, 3]
0	0xbcb1b6f8	-0.021693692
1	0x3d424025	0.047424454
2	0x3d0795f9	0.03310201
3	0x3cc03713	0.023463761
4	0x3da59708	0.080854475
5	0x3c4faa62	0.0126749
6	0x3c87a465	0.016557882
7	0x3d1206a0	0.03565085
8	0x3d886487	0.06659799
9	0xbd7ee49d	-0.06222974
10	0xbc6b9293	-0.014378208
11	0xbce80a6c	-0.028325282
12	0xbd99ff0f	-0.07519352
13	0xbd8d4e9a	-0.06899758
14	0xbb360792	-0.0027775508
15	0xbc15aabd	-0.009134945
16	0xbd6e8a77	-0.05823752
17	0xbc05dac7	-0.008169836
18	0x3d3966c5	0.045264024
19	0x3cadea70	0.021229953
20	0x3d80e7bd	0.062942006
21	0x3d14ea65	0.03635635
22	0xbc3e1ba4	-0.01160327
23	0x3c221a86	0.009894019
24	0x3d5d132e	0.05397337
25	0xbc213eb5	-0.009841611
26	0x3bfdd686	0.0077465205
27	0xbd24c90f	-0.040230807
28	0x3c432c61	0.011912436
29	0x3ce854ef	0.028360812
30	0x3cf97369	0.03045054
31	0x3d5b2f1a	0.053511716
32	0x3d96bdc7	0.07360416
33	0xbc9ff24e	-0.01952472
34	0x3c41da6a	0.011831859
35	0x3d0cd03a	0.034378268
36	0x3d79ef99	0.061019514
37	0x3c4d1647	0.012517518
38	0xbc966c70	-0.018362254
39	0xbc715058	-0.014728628
40	0xbcaffe71	-0.021483632
41	0x3c81e544	0.015856393
42	0xbc9d7177	-0.019219143
43	0xbce4796e	-0.027889933
44	0xbceff953	-0.029293692
45	0xbd18acd8	-0.03727421
46	0xbc40ff3a	-0.011779601
47	0xbbdcefa5	-0.006742435
48	0x3c9e8dd4	0.019354738
49	0xbc8cf123	-0.017204827
50	0xbc731233	-0.014835882
51	0xbd3fe5f3	-0.046850156
52	0xbd239652	-0.03993828
53	0xbbeef5df	-0.0072924937
54	0xbd871f9e	-0.065978274
55	0xbddf0ae3	-0.10890748
56	0xbca595ed	-0.020213092
57	0xbe0aeb1c	-0.1356625
58	0xbe0c5fcb	-0.13708417
59	0xbd98e05e	-0.0746467
60	0xbe1bbcff	-0.15208815
61	0xbdc9f6bf	-0.09861516
62	0xbdae7542	-0.08518459
63	0xbd41013f	-0.04712033
64	0x3c82ca51	0.015965613
65	0xbc538d62	-0.012912126
66	0x3d463327	0.048388626
67	0x3d142289	0.036165748
68	0x3da08631	0.07838095
69	0x3c65a8cb	0.014017294
70	0x3dccc70d	0.099989034
71	0x3dcaff5a	0.09911986
72	0x3d0ed368	0.03486958
73	0x3c968346	0.018373143
74	0x3d846a45	0.06465582
75	0x3c814ca7	0.015783621
76	0x3ca036c9	0.019557374
77	0x3a6ab340	0.0008953102
78	0x3c3455e1	0.011006803
79	0x3a4fab8c	0.0007921986
80	0x3d7f2968	0.062295347
81	0x3d2124c6	0.03934171
82	0xbca5059b	-0.020144274
83	0xbc952311	-0.018205198
84	0xbd029970	-0.03188461
85	0x3ac9d3d6	0.0015398215
86	0x3ce0563d	0.027384872
87	0xbc2347bc	-0.009965833
88	0x3d0f9ee0	0.035063624
89	0xbc7047df	-0.014665573
90	0xbd03f58d	-0.032216597
91	0x3cf2507d	0.029579395
92	0x3d559088	0.05213979
93	0x3c0bafc6	0.008525794
94	0x3c642430	0.013924643
95	0x3ca50ff3	0.020149207
96	0x3bf8f0ed	0.00759708
97	0x3cea320c	0.028588317
98	0x3cdfa16a	0.027298648
99	0xbd6bf77b	-0.057609063
100	0xbddea623	-0.10871532
101	0xbdbde517	-0.09272211
102	0xbdc1c316	-0.09461038
103	0xbd9732dc	-0.073827475
104	0xbd6ede7a	-0.05831764
105	0xbd3df716	-0.046378218
106	0xbd2deba3	-0.04246105
107	0x3b580217	0.003296023
108	0x3d16d274	0.036821797
109	0xbce41977	-0.027844174
110	0xbd187168	-0.037217528
111	0x3d360a9f	0.044443723
112	0x3d178a38	0.03699705
113	0x3ba49f1f	0.0050238515
114	0x3d908013	0.07055678
115	0x3dc37f35	0.09545747
116	0x3b139adb	0.002252272
117	0x3d2ed1a3	0.042680394
118	0x3d338b16	0.043833815
119	0xbc436a00	-0.011927128
120	0x3da3ab36	0.0799164
121	0x3c96ec47	0.018423213
122	0xbd8449da	-0.064593986
123	0x3d972a1b	0.07381078
124	0x3d13d423	0.03609098
125	0xbd3fb2d9	-0.04680142
126	0xbbe87c81	-0.00709492
127	0x3c646b9d	0.013941673
128	0xbceeda48	-0.029156819
129	0xbc4d25d9	-0.012521231
130	0xbd609633	-0.05483074
131	0xbc89a787	-0.016803516
132	0x3cb61fec	0.022232018
133	0xbd2c3965	-0.042046923
134	0xbc90a383	-0.017656093
135	0xbd093142	-0.03349424
136	0xbd8ec841	-0.06971789
137	0xbc588806	-0.013216024
138	0xbd8db203	-0.06918719
139	0xbd79ae1b	-0.060957056
140	0xbc229ddf	-0.009925335
141	0xbd8264a2	-0.063668504
142	0xbdd300be	-0.10302876
143	0xbc7b2d1a	-0.015330577
144	0xbc30a752	-0.01078208
145	0xbbcfed69	-0.00634544
146	0xbac2f30d	-0.001487346
147	0xbc5ff188	-0.013668425
148	0x3d63fb43	0.055659544
149	0x3a17d018	0.0005791201
150	0xbb78c7ad	-0.0037960813
151	0x3c0b4be6	0.008501982
152	0x3cdd1362	0.026986782
153	0x3cc1d241	0.023659827
154	0xbc223f19	-0.009902739
155	0xbc1703a2	-0.009217175
156	0x3c64f55a	0.013974512
157	0xbd375259	-0.044756267
158	0xbd6a70d8	-0.057236522
159	0xbcb36f78	-0.021903738
160	0xbd4e08f3	-0.050301503
161	0xbdb420c5	-0.08795313
162	0xbca70f11	-0.020392926
163	0x3d77220d	0.060335208
164	0x3c95b603	0.018275267
165	0x3ceb3cbf	0.02871549
166	0x3d883523	0.0665076
167	0x3d4f7694	0.050650194
168	0x3c9bb1e6	0.019005727
169	0x3afd7ec3	0.0019340146
170	0xbc859258	-0.016305134
171	0xbd271fdc	-0.040801868
172	0xbb959d76	-0.00456589
173	0xbd484821	-0.048896912
174	0xbd7a3f57	-0.06109556
175	0xbd0d993e	-0.03456997
176	0xbdb187d7	-0.086684875
177	0xbd6c62d6	-0.057711445
178	0xbca3720a	-0.019951839
179	0xbdc08ad7	-0.094014816
180	0xbc81c05b	-0.015838793
181	0x3ca653c2	0.02030361
182	0xbd9dac16	-0.076988384
183	0xbc6066bd	-0.01369637
184	0x3cf88c21	0.030340256
185	0xbd885e60	-0.066586256
186	0xbbca1b08	-0.006167773
187	0x3d3f965d	0.046774257
188	0x3bd9f44e	0.006651438
189	0x3c39661f	0.0113158515
190	0xbd013edc	-0.031554088
191	0xbb9908c2	-0.0046702335
192	0xbbe29f3d	-0.0069159553
193	0xbcbcf75e	-0.023067173
194	0xbd4463ab	-0.047946613
195	0xbb2f1a9c	-0.0026718741
196	0xbd2348b9	-0.039864276
197	0xbbc417f6	-0.0059843017
198	0x3c28ecf6	0.010310402
199	0xbbf7bf93	-0.007560679
200	0xbce03a13	-0.027371442
201	0x3c996b02	0.018727783
202	0xba132cdc	-0.00056142895
203	0xbcf15cc5	-0.029463181
204	0x3b0ba440	0.0021307617
205	0xbccc33c2	-0.024927024
206	0xbaa8af6b	-0.0012869661
207	0x3d616e06	0.055036567
208	0x391dcdb3	0.00015049316
209	0xbc9606bd	-0.01831376
210	0x3d5a1bc0	0.05324912
211	0x3c69d030	0.014270827
212	0xbc83c603	-0.01608563
213	0x3d0a49fc	0.033761963
214	0xbc6356a4	-0.013875637
215	0xbc4fdac4	-0.012686435
216	0x3cb1934b	0.02167668
217	0xbbe8b528	-0.0071016736
218	0x3c6d41a9	0.014480987
219	0xbbcfcbbd	-0.006341426
220	0x3d0d72f1	0.034533445
221	0x3cf7491f	0.030186234
222	0xbb75aa4f	-0.0037485545
223	0xbcc571c7	-0.024102105
224	0xbc8327ab	-0.016010126
225	0xbce05146	-0.027382504
226	0xbcb2d2b9	-0.021828996
227	0xbcb542aa	-0.022126514
228	0xbd51b9fb	-0.051202755
229	0x3d89d176	0.06729405
230	0x3d8fe1bf	0.070254795
231	0x3d053ce7	0.032528784
232	0x3d72c0f8	0.05926606
233	0x3d58e66e	0.05295413
234	0xbd2f0356	-0.04272779
235	0x3cf231b6	0.02956472
236	0x3b662f91	0.0035123567
237	0x3c9ae746	0.018909108
238	0x3ca5e3e3	0.020250266
239	0xbcc3661a	-0.023852397
240	0x3b9e7a3e	0.0048363497
241	0x3cf3a1aa	0.029740173
242	0xbd04fec7	-0.032469537
243	0xbcd58fb3	-0.026069498
244	0xbd1d27ad	-0.038367916
245	0xbc324e3d	-0.010882911
246	0xbd1b1a73	-0.03786702
247	0xbd17a4e0	-0.03702247
248	0xbd0d271b	-0.034461122
249	0xbcdfb234	-0.027306654
250	0xbd21b92a	-0.039483227
251	0xbd7295f9	-0.059225056
252	0xbd92cc37	-0.07167857
253	0x38d4e756	0.000101520374
254	0x3d845bd5	0.06462828
255	0xbd53b55a	-0.051686622

embed.encoder.4.bias f4 [64]
0	0x3cc6cecd	0.024268532
1	0xbd842c77	-0.064537935
2	0xbb5d189a	-0.0033736588
3	0xbcf9914e	-0.030464794
4	0xbcc4b1c7	-0.024010552
5	0xbd60f0ce	-0.05491715
6	0x3d7a4df0	0.061109483
7	0xbc922858	-0.017841503
8	0x3e096856	0.13418707
9	0x3c8feb85	0.01756836
10	0xbcaba13a	-0.020950902
11	0x3cddc889	0.027073162
12	0x3928cf2c	0.00016098906
13	0xbccd6069	-0.025070386
14	0x3da4c57a	0.08045478
15	0xbd79eb2d	-0.061015297
16	0xbda8b59c	-0.08237764
17	0x3b91588e	0.0044356054
18	0x3cc9d346	0.024636876
19	0x3c8d5b4d	0.01725545
20	0x3d581517	0.052754488
21	0xbb646493	-0.0034849986
22	0x3cc7d903	0.024395471
23	0x3ccd14d0	0.025034338
24	0x3c050cb5	0.008120705
25	0x3ce6a1a3	0.028153246
26	0x3dadd350	0.0848757
27	0x3d1c669b	0.03818379
28	0xbd394386	-0.04523041
29	0xbdd6bbb1	-0.10485018
30	0xbcdfba4c	-0.027310513
31	0xbc4299ab	-0.011877458
32	0x3d7de61f	0.06198704
33	0xbd1c7fb7	-0.038207736
34	0x3c9fb4ce	0.019495394
35	0x3d3866e8	0.045020014
36	0xbc4f86f8	-0.012666456
37	0xbd884b55	-0.066549934
38	0xbd5f2f6f	-0.054488596
39	0xbd939371	-0.072058566
40	0x3bbc3210	0.0057432726
41	0x3ab3151d	0.0013662908
42	0xbc95005f	-0.018188654
43	0x3d634f7e	0.05549573
44	0x3b8579cf	0.0040733586
45	0xbd9adc7f	-0.075615875
46	0xbd2a8721	-0.041632775
47	0xbd7c9417	-0.061664667
48	0xbca49c64	-0.020094104
49	0xbda9b72c	-0.082868904
50	0xbd5bba87	-0.053644683
51	0xbd966cbb	-0.073449574
52	0x3d5c0fbf	0.053725954
53	0x3cfb70a9	0.030693369
54	0xbd65bb83	-0.05608703
55	0x3d43e4ca	0.047825612
56	0xbb21d846	-0.002469556
57	0xbd1da27a	-0.038485028
58	0x3d1b9a29	0.037988815
59	0xbc2a8abc	-0.010409053
60	0xbcb54914	-0.022129573
61	0xbc1ebbfe	-0.0096883755
62	0xbc6a906a	-0.014316658
63	0xbbce56e7	-0.0062969807

embed.encoder.5.weight f4 [64]
0	0x3f7d5c4f	0.98968977
1	0x3f86e184	1.0537572
2	0x3f818234	1.011786
3	0x3f71e885	0.9449542
4	0x3f7bda8a	0.9838034
5	0x3f804816	1.0021999
6	0x3f76f213	0.96463126
7	0x3f85169f	1.0397528
8	0x3f8cdce0	1.1004906
9	0x3f843932	1.0329955
10	0x3f83ca53	1.029612
11	0x3f878de7	1.059018
12	0x3f7742af	0.96586126
13	0x3f7b8f55	0.9826558
14	0x3f78e91e	0.9723071
15	0x3f6dbd1e	0.92866695
16	0x3f769bcc	0.9633148
17	0x3f7e6426	0.99371564
18	0x3f7ad7be	0.97985446
19	0x3f73f058	0.9528861
20	0x3f7cf91e	0.9881762
21	0x3f82c9d6	1.0217845
22	0x3f80f8ea	1.0075963
23	0x3f800efc	1.0004573
24	0x3f7a37f8	0.9774165
25	0x3f6bae25	0.920626
26	0x3f8b9821	1.0905801
27	0x3f8119df	1.008602
28	0x3f7da3be	0.99077976
29	0x3f722453	0.94586676
30	0x3f847d2d	1.0350701
31	0x3f7d31ae	0.9890393
32	0x3f7cc9f1	0.9874564
33	0x3f81339c	1.0093875
34	0x3f77b1b8	0.9675555
35	0x3f753876	0.9578928
36	0x3f71436a	0.9424349
37	0x3f7e3c07	0.99310344
38	0x3f8045d8	1.0021315
39	0x3f72b78c	0.9481132
40	0x3f7e660d	0.9937447
41	0x3f813a81	1.0095979
42	0x3f897ce5	1.074124
43	0x3f7245d9	0.9463783
44	0x3f80a890	1.0051441
45	0x3f781634	0.9690888
46	0x3f83f6bc	1.0309672
47	0x3f7ca8de	0.9869517
48	0x3f8677f1	1.0505353
49	0x3f8109d6	1.0081127
50	0x3f7de27c	0.9917371
51	0x3f673414	0.9031384
52	0x3f749f26	0.9555534
53	0x3f7cc56e	0.98738754
54	0x3f80f350	1.0074253
55	0x3f77e3b4	0.9683182
56	0x3f86771f	1.0505103
57	0x3f75dc14	0.9603894
58	0x3f8620a5	1.0478712
59	0x3f863304	1.0484319
60	0x3f7a642d	0.97809106
61	0x3f846927	1.034459
62	0x3f83ea7d	1.0305935
63	0x3f818682	1.0119174

embed.encoder.5.bias f4 [64]
0	0xbd9ea206	-0.07745747
1	0xbd90cd44	-0.07070401
2	0xbde5003f	-0.111816876
3	0xbdcb37de	-0.09922765
4	0x3ac1fb02	0.0014799538
5	0xbe114be5	-0.14189108
6	0xbe561488	-0.2090627
7	0xbdab488f	-0.08363449
8	0xbe807702	-0.25090796
9	0xbd1bcf19	-0.0380393
10	0xbc4a52fa	-0.012348885
11	0xbd6ece83	-0.058302414
12	0xbdd20bdb	-0.102561675
13	0xbda0c0c0	-0.07849264
14	0xbd618338	-0.05505678
15	0xbd067ca2	-0.032833703
16	0xbc0e90c8	-0.008701511
17	0xbe126bd1	-0.14298941
18	0xbe0740dd	-0.13208337
19	0xbd36da1c	-0.0446416
20	0xbe0670d3	-0.13128977
21	0xbd97b30e	-0.07407199
22	0xbd3fbf0e	-0.046813063
23	0xb8d66540	-0.000102231745
24	0xbd63235a	-0.055453636
25	0xbdb34baa	-0.08754666
26	0x3d80a60f	0.06281673
27	0xbd8a49f0	-0.06752384
28	0xbdb800d2	-0.089845315
29	0xbd2424f6	-0.04007431
30	0x3bb408a7	0.0054941955
31	0xbaa86cad	-0.0012849771
32	0xbb368409	-0.0027849695
33	0x3cb86d1b	0.022512963
34	0xbbf3f7f2	-0.007445329
35	0xbd5bb492	-0.053639002
36	0xbe00639a	-0.12537995
37	0xbe02c244	-0.12769419
38	0xbd358e9b	-0.044325452
39	0xbe29aa64	-0.16568905
40	0xbd7b3295	-0.061327536
41	0xbd7e0627	-0.062017586
42	0xbcd32d83	-0.025778538
43	0xbd6411d7	-0.055681076
44	0xbd394695	-0.045233328
45	0xbdd27dcd	-0.10277901
46	0xbdef1554	-0.1167399
47	0xbd74ab69	-0.059733782
48	0xbd885669	-0.066571064
49	0xbb3ae334	-0.0028516771
50	0xbdc6a1cb	-0.09698828
51	0xbe3622f4	-0.17786771
52	0xbd69b6af	-0.057058986
53	0xbd5136d7	-0.05107769
54	0xbe3baa84	-0.18326765
55	0xbd935e3d	-0.07195709
56	0xbd692a36	-0.05692502
57	0x3bb52a3f	0.005528718
58	0xbe0cecae	-0.13762161
59	0xbd686f5b	-0.05674682
60	0xbd8c0339	-0.06836552
61	0x3c99580f	0.018718747
62	0xbd82c3b6	-0.06384985
63	0xbe0f59ac	-0.13999051

embed.encoder.5.running_mean f4 [64]
0	0xbf89a561	-1.0753595
1	0xc0c3a755	-6.1141763
2	0xc091c4e8	-4.5552864
3	0xbfa1e19b	-1.2646974
4	0xc008dc51	-2.138447
5	0x3f30519e	0.6887454
6	0xc04806f8	-3.1254253
7	0xc0b8a7af	-5.770469
8	0xbefc3bc4	-0.49264348
9	0xbfe183cf	-1.761835
10	0x3fcf8152	1.621134
11	0xc0c432e2	-6.1312113
12	0x3f357e4b	0.7089583
13	0x40a5e92e	5.1847143
14	0xc0425f4e	-3.037067
15	0xc074b44a	-3.823504
16	0xc02defba	-2.7177567
17	0xc081bd8f	-4.0543895
18	0x3f3ab480	0.7293167
19	0xbfd1788a	-1.6364911
20	0x3f1064ec	0.56403995
21	0xc0928078	-4.578182
22	0xc0a209da	-5.0637026
23	0xc08cb67f	-4.3972774
24	0xbf9d9ae0	-1.2312889
25	0xbf242e7e	-0.6413344
26	0xc07b3214	-3.9249315
27	0xbf2ea096	-0.68213785
28	0x40493382	3.1437688
29	0xc02299fc	-2.5406485
30	0xc0d8e36c	-6.7777615
31	0xbded24f0	-0.11579311
32	0xc01a2443	-2.4084632
33	0xc094c863	-4.6494613
34	0xbfbb7f42	-1.4648211
35	0xc0aca871	-5.3955617
36	0xc038f49e	-2.8899302
37	0xbf5def12	-0.8669292
38	0xbfb67df2	-1.4257185
39	0x400f21bd	2.2364342
40	0x3ebbc7c6	0.36675853
41	0xbec3ffec	-0.3828119
42	0xbfb22c98	-1.3919859
43	0xc0398a0f	-2.8990514
44	0xc008b8b0	-2.1362724
45	0x3fc34dde	1.5258138
46	0x3e3d64fc	0.18495554
47	0xc0735a89	-3.8024008
48	0xc0508d9d	-3.2586434
49	0xc099ae15	-4.8025002
50	0x3fbca05a	1.4736435
51	0xbfac078d	-1.3439804
52	0x40136b7e	2.3034358
53	0xbf1f56dd	-0.6224192
54	0x40464128	3.0977268
55	0xc0701112	-3.751042
56	0xc0dbe3cd	-6.8715577
57	0xbfbf6f6c	-1.4955878
58	0xc08d2474	-4.4107
59	0xc0dd3df6	-6.9138136
60	0xbed650f5	-0.4185864
61	0xc0814ab4	-4.040369
62	0xc00b6029	-2.1777442
63	0x3f248dcf	0.6427888

embed.encoder.5.running_var f4 [64]
0	0x41012ef0	8.073959
1	0x41854697	16.659468
2	0x414a7efe	12.656004
3	0x4085d4a1	4.1822057
4	0x4119120d	9.566907
5	0x40a1c897	5.055736
6	0x414692cf	12.410842
7	0x40f0a919	7.520642
8	0x40c66279	6.1995206
9	0x40e560c3	7.1680617
10	0x418683da	16.81438
11	0x41678cc2	14.471865
12	0x40aa0770	5.313408
13	0x4119c60a	9.610849
14	0x4137e6b0	11.49382
15	0x4130d4c9	11.0519495
16	0x40f58f20	7.6737213
17	0x40f32500	7.5982666
18	0x4141f807	12.123054
19	0x40db14b6	6.846278
20	0x41411ef5	12.070058
21	0x413a0175	11.625356
22	0x41725851	15.146562
23	0x414587a9	12.34562
24	0x40e4275a	7.1298037
25	0x40f44541	7.633454
26	0x416aa528	14.665321
27	0x4086ebcc	4.216284
28	0x40ff6a01	7.98169
29	0x4112f899	9.185693
30	0x41c16917	24.176313
31	0x41608f7c	14.03503
32	0x413b175b	11.693202
33	0x4124ca5c	10.299404
34	0x40d66456	6.699748
35	0x4163a5f1	14.228013
36	0x4112d0ab	9.175944
37	0x40966adc	4.7005444
38	0x40a94046	5.289096
39	0x40f19147	7.548984
40	0x404e3897	3.222204
41	0x4085c198	4.179882
42	0x40725c8c	3.7868986
43	0x41248b30	10.283981
44	0x409feb1a	4.997449
45	0x40a5fa65	5.1868157
46	0x40d7b426	6.740741
47	0x40a7ffee	5.2499914
48	0x40ddefab	6.9355063
49	0x410469a3	8.27579
50	0x41062a59	8.385339
51	0x40c6942f	6.205589
52	0x40f4752c	7.639303
53	0x40c8e731	6.2782216
54	0x4102a552	8.165361
55	0x414d6283	12.836551
56	0x417bcecb	15.737987
57	0x40ce7293	6.451486
58	0x41956dab	18.678549
59	0x41b9e198	23.235153
60	0x4056fdde	3.3592448
61	0x417a47bf	15.642516
62	0x40c297fe	6.0810537
63	0x4033d984	2.810151

embed.encoder.8.weight f4 [64, 64, 3, 3]
0	0xbbe17956	-0.0068809194
1	0xbd8d345b	-0.06894752
2	0xbc0f1b2c	-0.008734506
3	0xbd9c9097	-0.07644766
4	0xbd3e3834	-0.04644032
5	0xbd1f33a0	-0.038867593
6	0xbc6932eb	-0.014233331
7	0xbd44513b	-0.04792903
8	0x3c07c9e5	0.0082878815
9	0xbd33d52c	-0.04390447
10	0xbd9512de	-0.07278989
11	0xbd920a91	-0.07130922
12	0xbd7e9d60	-0.062161803
13	0xbbb01361	-0.005373404
14	0xbd072c6d	-0.033001352
15	0xbca08fd2	-0.019599829
16	0xbda86b9d	-0.082236506
17	0xb8827d12	-6.222179e-05
18	0xbc6cd47b	-0.014454956
19	0x3d51b1b4	0.05119486
20	0x3d61b632	0.055105396
21	0x3c971743	0.01844371
22	0xbc8534f0	-0.016260594
23	0x3caf0ace	0.021367457
24	0x3d2c7b79	0.04210994
25	0xbc37596a	-0.011190752
26	0x3d2bde1f	0.041959878
27	0x3bdb09f1	0.0066845347
28	0xbd49c348	-0.0492585
29	0xbc61c7cf	-0.013780548
30	0x3c419a38	0.011816554
31	0x3b294317	0.0025827342
32	0xbc4311a9	-0.011906066
33	0xbd43cbb9	-0.047801707
34	0xbd3de9cb	-0.04636554
35	0xbdb40563	-0.0879009
36	0xbd3a1e46	-0.045439027
37	0xbcdfe533	-0.02733097
38	0xbd0d5345	-0.03450324
39	0xbd9297c4	-0.07157853
40	0x3b0a69de	0.002112023
41	0x3d056050	0.032562554
42	0xbd0c6982	-0.034280308
43	0xbaeb8843	-0.0017969686
44	0x3c821bfb	0.015882483
45	0xbd6cda9d	-0.057825673
46	0xbd81bd7f	-0.06334972
47	0xbd730d00	-0.05933857
48	0x3c72f8a0	0.014829785
49	0xbd306881	-0.043068413
50	0xbd1c1b6b	-0.038112085
51	0xba8cd2ae	-0.001074394
52	0xbbaa2ba7	-0.005193192
53	0xbd1a8cfc	-0.03773211
54	0xbcaa2404	-0.020769127
55	0xbd11473a	-0.035468318
56	0xbc7a9d83	-0.015296343
57	0xbc9597c9	-0.018260853
58	0xbbcf6dff	-0.006330251
59	0xbcec3d78	-0.028837904
60	0xbc9d83a9	-0.01922782
61	0x3c8d2a97	0.017232222
62	0x3c1ebeee	0.009689076
63	0xbe09b5fb	-0.13448326
64	0xbdfc35d5	-0.12314955
65	0xbdc4b45c	-0.09604713
66	0xbe16b3a2	-0.14716962
67	0xbe08ec78	-0.13371456
68	0xbd96dc0b	-0.073661886
69	0xbe268d7c	-0.1626491
70	0xbe173baa	-0.14768854
71	0xbd9779e3	-0.07396295
72	0xbd3ba4b3	-0.045811366
73	0xbd874a31	-0.06605948
74	0xbcce495b	-0.025181463
75	0xbd995c40	-0.074882984
76	0xbdb6ca2d	-0.08925281
77	0xbd6d2df5	-0.057905156
78	0xbd17539a	-0.036944963
79	0xbd848310	-0.06470311
80	0xbd4de111	-0.05026347
81	0xbcf6e902	-0.030140404
82	0xbd2cb013	-0.042160105
83	0xba2c1c54	-0.00065655005
84	0xbc75dd72	-0.01500641
85	0xbd937403	-0.07199862
86	0xbbcf294d	-0.006322062
87	0x3bd7401d	0.006568922
88	0xbd835fe3	-0.06414773
89	0x3c75d3ca	0.015004108
90	0x3d8f0769	0.06983835
91	0x3d62d124	0.055375233
92	0x3cbc9a1e	0.023022708
93	0x3d6497cf	0.05580884
94	0x3d850b04	0.06496242
95	0x3cec0373	0.028810238
96	0x3dac11db	0.08401843
97	0x3d0e10a0	0.034683824
98	0x3d088b16	0.033335768
99	0xbd48d413	-0.049030375
100	0x3d07623d	0.03305267
101	0xbc42109d	-0.011844781
102	0xbcd556b9	-0.02604233
103	0x3c209d59	0.00980314
104	0xbcb19105	-0.021675596
105	0xbd0f43ab	-0.034976643
106	0xbd5aaca0	-0.053387284
107	0xbcbbe331	-0.022935482
108	0x3d15989e	0.0365225
109	0x3d5a4097	0.053284254
110	0x3d62f2d5	0.055407364
111	0x3d899a21	0.06718851
112	0x3d99f918	0.07518214
113	0x3ca22433	0.019792652
114	0x3cd63e17	0.026152654
115	0x3dae9190	0.085238576
116	0x3d9b5881	0.0758524
117	0x3ceaeda9	0.028677778
118	0x3d06968b	0.032858413
119	0x3c45e183	0.012077692
120	0x3d4779cf	0.04870015
121	0x391256f9	0.00013956045
122	0x3d59bec6	0.05316045
123	0xbaa5ec40	-0.0012658909
124	0x3d632812	0.055458136
125	0x3d90f35b	0.07077666
126	0xbc1d9ee5	-0.009620403
127	0x3bb77a84	0.005599322
128	0x3d149809	0.036277805
129	0x3cd1e8a0	0.02562362
130	0xbb1d7d3a	-0.002403094
131	0x3d522c6f	0.051311906
132	0x3cb6cdb8	0.022314891
133	0x3bde0f22	0.0067767063
134	0x3d835c93	0.064141415
135	0x3ccc6290	0.024949342
136	0xba70257b	-0.00091608585
137	0x3c385170	0.011249885
138	0xbc1210dd	-0.008915153
139	0x3d35dbec	0.044399187
140	0xbc9c629d	-0.019089991
141	0xbaa0c51d	-0.0012265776
142	0xbc93fcfc	-0.018064968
143	0xba701a88	-0.0009159227
144	0x3ba3fe23	0.0050046607
145	0xbb5b0b0d	-0.0033423335
146	0xbcd51b5b	-0.02601402
147	0x3cb8d32e	0.022561636
148	0x3a063faf	0.0005121184
149	0xbc57e18e	-0.013176335
150	0x3c881895	0.016613284
151	0x3d615501	0.055012707
152	0x3d21730a	0.03941635
153	0xbd974f7a	-0.07388206
154	0xbdc244bd	-0.09485767
155	0xbd3065b7	-0.043065753
156	0xbdcec6b1	-0.10096491
157	0xbd475b96	-0.048671328
158	0xbd9032a5	-0.0704091
159	0xbdc41977	-0.095751695
160	0xbd4233ab	-0.047412556
161	0xbc95fa00	-0.018307686
162	0x3c833d17	0.01602034
163	0x3cf910d3	0.03040353
164	0x3c84092b	0.016117653
165	0x3cb2f837	0.021846874
166	0xbc97e24d	-0.018540526
167	0xbbce515f	-0.0062963213
168	0x3bd8795e	0.006606265
169	0x3c175f49	0.009239026
170	0xbcb720d2	-0.022354517
171	0xbc077f47	-0.008270091
172	0xbd80bfcd	-0.06286583
173	0x3ceb8edc	0.028754644
174	0xbd872291	-0.0659839
175	0xbd891bdb	-0.06694766
176	0x3d7b4605	0.061346073
177	0xbc72e916	-0.01482608
178	0xbca37e91	-0.019957813
179	0x3d46421f	0.0484029
180	0x3ca7041f	0.020387707
181	0xbcdfbcc3	-0.027311688
182	0xbc88cba4	-0.016698666
183	0x3ce1a046	0.027542245
184	0x3ccae991	0.024769576
185	0x3d00fd7f	0.031491753
186	0x3cb09322	0.021554533
187	0xbc6c6003	-0.014427188
188	0xbd4a7e9b	-0.049437147
189	0x3c88a739	0.0166813
190	0x3d1189e6	0.0355319
191	0x3c060cec	0.008181792
192	0x3d0672b8	0.032824248
193	0x3cd9e363	0.026597684
194	0xbd09e614	-0.033666685
195	0xbcb8d753	-0.022563612
196	0x3b26bd84	0.002544255
197	0xbb3285cb	-0.0027240391
198	0x3c97a9c0	0.01851356
199	0x3d4f2777	0.050574746
200	0x3cdabc00	0.026700974
201	0x3d2966c4	0.04135777
202	0x3c370de4	0.011172745
203	0xbcc513dc	-0.024057321
204	0x3d8beeac	0.068326324
205	0x3bb1d1a6	0.0054266034
206	0x3c5e6228	0.013573207
207	0x3cc45b5f	0.02396935
208	0x3d3eb4b7	0.04655906
209	0xbb9cf562	-0.004789994
210	0x3d6091e8	0.054826647
211	0x391e623a	0.00015104646
212	0xbd039c72	-0.03213162
213	0x3cc9b647	0.02462305
214	0x3cbc351c	0.022974543
215	0xbcdf3b85	-0.02725006
216	0x3ceeeb8b	0.02916505
217	0x3d37f12f	0.044907745
218	0x3ccadbf9	0.024763094
219	0x3d73577f	0.059409615
220	0x3cdafbe7	0.026731445
221	0xbcb62c1b	-0.022237828
222	0x3cd384e9	0.025820212
223	0x3d850fc3	0.06497147
224	0x3c643337	0.013928226
225	0x3c629f98	0.013831995
226	0x3a65c43e	0.0008764899
227	0xbcabbc14	-0.020963706
228	0xbb8fb111	-0.0043851216
229	0xbc0fcdff	-0.008777141
230	0xbcd1a8a8	-0.025593117
231	0xbd213206	-0.039354347
232	0x3b45bb6a	0.0030171522
233	0xbcac419b	-0.021027377
234	0x3c61ec03	0.01378918
235	0x3da8ab48	0.08235794
236	0x3b6bf34c	0.003600317
237	0x3d8d9e81	0.06914998
238	0x3d84afc5	0.06478838
239	0x3d41485e	0.047188155
240	0x3d500045	0.050781507
241	0x3cfc0fcf	0.030769257
242	0xbc88e33f	-0.016709922
243	0xbda77239	-0.08176083
244	0xbdc301af	-0.095218055
245	0x3c1b4315	0.009476443
246	0xbd7bac96	-0.061443888
247	0xbca36efa	-0.019950379
248	0x3c6f086d	0.014589411
249	0xbd084899	-0.03327236
250	0x3b0fcc90	0.0021941997
251	0x3ce26588	0.027636304
252	0x3d592d84	0.053021923
253	0x3d9b1a5e	0.075733885
254	0x3c198732	0.009370612
255	0x3d9e4222	0.077274576

embed.encoder.8.bias f4 [64]
0	0x3befe690	0.0073211864
1	0x3d9cfd2d	0.07665477
2	0xbb8a11b8	-0.004213538
3	0xbda4553e	-0.08024071
4	0x3c900736	0.017581563
5	0xbc82db5d	-0.015973741
6	0xbc9b6d01	-0.018972876
7	0x3b1a9914	0.0023589777
8	0x3d877ac4	0.066152126
9	0xbd18cd7d	-0.037305344
10	0xbd6b4964	-0.057443038
11	0x3cf08787	0.0293615
12	0x3ccbec47	0.02489294
13	0x3cfab1fb	0.030602446
14	0x3d307595	0.043080885
15	0xbc29de32	-0.010367917
16	0xbcbf46e2	-0.02334923
17	0xbcfa85b2	-0.030581329
18	0x3d381a58	0.044947
19	0x3d7d3e4f	0.061827
20	0x3d0cdad4	0.03438838
21	0xbd463f3d	-0.048400152
22	0xbd5f3afd	-0.054499615
23	0xbc7b8b5d	-0.015353051
24	0xbcb06030	-0.02153024
25	0x3b88fc89	0.004180495
26	0xbbc8b3f2	-0.006124967
27	0x3d009716	0.031394087
28	0x3c2a7f68	0.010406353
29	0x3c6c2879	0.014413946
30	0xbd4d1779	-0.050071213
31	0x3d617073	0.05503888
32	0xbd35c1d0	-0.044374287
33	0xbd3872f4	-0.045031503
34	0xbd9fda40	-0.078053
35	0xbdaa2369	-0.08307535
36	0xbddfc739	-0.109266706
37	0xbd3ade77	-0.045622315
38	0xbcdeed78	-0.027212843
39	0xbcc9ea14	-0.02464775
40	0xba8a947d	-0.0010572817
41	0x3d08e34e	0.0334199
42	0x3d75dc79	0.060024712
43	0x3d60e5f8	0.054906815
44	0xbd6f0afb	-0.05836008
45	0x39c36e82	0.00037275633
46	0x3c92c26b	0.017914971
47	0xbce637ec	-0.028102838
48	0xbd1d9c82	-0.038479336
49	0xbd129550	-0.035786927
50	0xbaacd4e1	-0.0013186001
51	0x3c4da40e	0.012551321
52	0x3d0a8e00	0.033826828
53	0xbcae770d	-0.021297002
54	0xbd023c5d	-0.03179585
55	0x3c98e016	0.01866154
56	0x3b979ad0	0.0046266094
57	0x3d2f9d20	0.042874455
58	0xbc15b95c	-0.009138431
59	0xbb0ba272	-0.0021306542
60	0x3d0bc76f	0.03412574
61	0x3c68b499	0.014203214
62	0x3ceafccf	0.028685002
63	0xbce5ca48	-0.028050557

embed.encoder.9.weight f4 [64]
0	0x3f7d1612	0.988618
1	0x3f7f9402	0.99835217
2	0x3f80d457	1.0064801
3	0x3f7c6e38	0.9860568
4	0x3f7c2813	0.9849865
5	0x3f7d00c0	0.9882927
6	0x3f7e87df	0.9942607
7	0x3f72e529	0.9488092
8	0x3f7eb776	0.9949869
9	0x3f70806f	0.93945974
10	0x3f876e90	1.0580616
11	0x3f7cc8fa	0.98744166
12	0x3f7c1678	0.98471785
13	0x3f7fd07b	0.9992749
14	0x3f76a485	0.96344787
15	0x3f7e3407	0.9929814
16	0x3f7f783b	0.9979283
17	0x3f8775c3	1.0582813
18	0x3f70d4bc	0.94074607
19	0x3f7f4c05	0.9972537
20	0x3f885279	1.0650169
21	0x3f87e0d9	1.0615493
22	0x3f80b911	1.0056478
23	0x3f84c19c	1.0371585
24	0x3f7ec86f	0.9952459
25	0x3f832bb8	1.0247717
26	0x3f81aa56	1.0130107
27	0x3f794c72	0.9738227
28	0x3f7b07b9	0.9805866
29	0x3f806bcc	1.0032897
30	0x3f63838a	0.8887259
31	0x3f84b163	1.0366634
32	0x3f6e200b	0.93017644
33	0x3f7eb5d9	0.9949623
34	0x3f6e6c6d	0.93134195
35	0x3f70b0c6	0.94019735
36	0x3f899c54	1.0750833
37	0x3f884757	1.0646771
38	0x3f7683fa	0.9629513
39	0x3f87e508	1.061677
40	0x3f710635	0.94150096
41	0x3f875eb9	1.0575782
42	0x3f8280c0	1.0195541
43	0x3f7ce5a4	0.98787904
44	0x3f92af73	1.1459793
45	0x3f72c644	0.9483378
46	0x3f86fece	1.054651
47	0x3f717e98	0.9433379
48	0x3f7fd012	0.99926865
49	0x3f6b3f29	0.9189325
50	0x3f86d7f1	1.053465
51	0x3f834a0f	1.0256976
52	0x3f7b83fb	0.9824826
53	0x3f850c7a	1.0394433
54	0x3f8a1466	1.0787475
55	0x3f7f55f1	0.9974051
56	0x3f8192e3	1.0122951
57	0x3f849269	1.0357181
58	0x3f6bdfb6	0.9213823
59	0x3f746b56	0.9547628
60	0x3f787b96	0.9706358
61	0x3f7ade7b	0.9799573
62	0x3f85a95c	1.0442309
63	0x3f77301a	0.9655777

embed.encoder.9.bias f4 [64]
0	0xbd37ecac	-0.044903442
1	0xbcbe3a2b	-0.023221096
2	0xbdd300ae	-0.10302864
3	0x3d32ef56	0.04368528
4	0x3a5f011c	0.000850694
5	0xbde498a0	-0.111619234
6	0xbd5c5cf6	-0.053799592
7	0xb96fcc2d	-0.00022868878
8	0xbcadc50e	-0.021212127
9	0x3b5a1370	0.0033275746
10	0xbbe717cc	-0.0070523974
11	0xbcfa0753	-0.03052107
12	0xbdf7d4a5	-0.121011056
13	0xbe0dd3df	-0.13850354
14	0xbd5802cf	-0.052737053
15	0xbdd75316	-0.10513894
16	0xbaa140ec	-0.0012302673
17	0xbd276720	-0.040869832
18	0xbe06ffea	-0.13183561
19	0xbe070f4b	-0.13189428
20	0xbd3e0109	-0.046387706
21	0x3d12fafa	0.03588388
22	0xbe447fc3	-0.19189362
23	0xbde788ec	-0.11305413
24	0xbcb63c70	-0.022245616
25	0x3ccb1019	0.02478795
26	0xbd60cca9	-0.05488268
27	0xbde77494	-0.113015324
28	0xbcc93b6e	-0.024564471
29	0xbd113aff	-0.035456654
30	0xbd41ac58	-0.0472835
31	0xbd0545a4	-0.032537118
32	0xbd317fc4	-0.043334737
33	0xbdda73a3	-0.10666587
34	0x3cc3a1c1	0.023880841
35	0xbd8fe8d6	-0.07026832
36	0xbd3f2f5a	-0.046676017
37	0xbd16e92b	-0.03684346
38	0xbd57e730	-0.052710712
39	0xbd494f64	-0.04914798
40	0xbd54b6ff	-0.05193233
41	0x3bd55c44	0.006511243
42	0x3d8819c4	0.066455394
43	0xbe0ff7cc	-0.14059371
44	0xbe078796	-0.13235316
45	0xbd70a6a9	-0.05875269
46	0xbdd365fe	-0.10322188
47	0x3c8edaed	0.017438376
48	0xbcd05c4d	-0.025434637
49	0x3c673820	0.014112502
50	0x3dc63807	0.09678655
51	0x3d80fc1d	0.06298087
52	0x3cbea6a7	0.023272825
53	0xbd8c26f3	-0.068433665
54	0xbc59d566	-0.013295507
55	0xbd860ad7	-0.06545036
56	0xbd161234	-0.036638454
57	0x3d0b5071	0.03401226
58	0xbd71f994	-0.059075907
59	0xbd768eb0	-0.06019467
60	0xbe166d60	-0.14690161
61	0x3b516925	0.003195354
62	0xbd01148f	-0.031513747
63	0x3d3bf662	0.045889266

embed.encoder.9.running_mean f4 [64]
0	0xc0206d58	-2.5066738
1	0xbff9bbe1	-1.9510461
2	0xbfc9647d	-1.5733792
3	0xbfa9a4ce	-1.3253419
4	0xbf8976c4	-1.0739369
5	0xbf082eb7	-0.5319628
6	0xbff05901	-1.8777162
7	0x3f49918a	0.787377
8	0xc08ef6c5	-4.467623
9	0xc036dfca	-2.857409
10	0x3ac58cac	0.0015071831
11	0xc076a37e	-3.8537288
12	0xc02cf432	-2.7024045
13	0xc0221a1b	-2.5328434
14	0xbff0fd8a	-1.8827374
15	0x3fabe261	1.342846
16	0xc0413f38	-3.0194836
17	0x3e619ba9	0.22032036
18	0xbf52b61f	-0.82309145
19	0xbffb85c1	-1.9650193
20	0xbfd4dbe3	-1.6629604
21	0xc0750d17	-3.828924
22	0x3ed0194d	0.40644303
23	0x40241baf	2.5641897
24	0x3f7425d1	0.95370203
25	0xc06db41c	-3.714118
26	0xbff558f3	-1.916777
27	0xc01f5602	-2.4896245
28	0xc0081916	-2.1265311
29	0xc04871cf	-3.1319463
30	0x3fbe9596	1.48894
31	0xc0a5496c	-5.1652126
32	0xbfee79d2	-1.8630927
33	0xc01e3b2d	-2.4723618
34	0xbf1026ba	-0.5630909
35	0xbed25cfc	-0.41086566
36	0xbe65cbc8	-0.22441018
37	0xc07f1906	-3.9859023
38	0xbceeb8b9	-0.029140817
39	0xc053f41c	-3.3117743
40	0xbf093287	-0.53592724
41	0xbf39426b	-0.7236697
42	0xc02d2a9b	-2.7057254
43	0xc05cd2ea	-3.4503732
44	0xbf3960a6	-0.724131
45	0x3f0378ec	0.5135639
46	0xc0659f45	-3.587846
47	0x3f5804a8	0.84382105
48	0xc016ec26	-2.3581634
49	0x3d83f43d	0.06443069
50	0xc04e5763	-3.2240837
51	0xbf965524	-1.1744733
52	0xc09db519	-4.9283566
53	0xc05d919a	-3.4620118
54	0x3f70fdb0	0.94137096
55	0xbfe6c630	-1.8029232
56	0xbf607f55	-0.87694293
57	0xc07f85e1	-3.9925463
58	0xc01a73ee	-2.4133258
59	0xbe574d66	-0.21025619
60	0x3e50b95a	0.20383206
61	0xbe830b62	-0.25594622
62	0xbfdb7f6d	-1.7148262
63	0xc00e5ed5	-2.224538

embed.encoder.9.running_var f4 [64]
0	0x410cdb24	8.803501
1	0x40bac044	5.83597
2	0x406ca049	3.697283
3	0x415379b9	13.217217
4	0x4116401b	9.390651
5	0x40fc682c	7.8877163
6	0x4131c07c	11.109493
7	0x40ba7f10	5.8280106
8	0x4118e140	9.554993
9	0x40be2d00	5.942993
10	0x40ff5e06	7.9802275
11	0x4192545f	18.291197
12	0x4133aad6	11.229208
13	0x4130e25f	11.055266
14	0x413b8a6d	11.721295
15	0x41002995	8.010152
16	0x4101ac6a	8.104593
17	0x413245d2	11.142046
18	0x40e9bc5c	7.304243
19	0x41386cb8	11.526543
20	0x40734adf	3.8014448
21	0x409d9b35	4.925196
22	0x40c89b15	6.268931
23	0x41052b66	8.323095
24	0x410860ad	8.5236025
25	0x413670d8	11.40255
26	0x40e90871	7.2822804
27	0x4132de2b	11.17924
28	0x40dae9dc	6.8410473
29	0x40f59dc5	7.675509
30	0x41518ac5	13.096379
31	0x41106111	9.023698
32	0x40cbe8ec	6.372183
33	0x411eea39	9.932183
34	0x40fecc45	7.9624352
35	0x412c2d26	10.761023
36	0x413b5dc4	11.710392
37	0x414403fd	12.250974
38	0x405c0f21	3.4384234
39	0x4075b413	3.8391159
40	0x40d36848	6.6064796
41	0x4181a9cb	16.207907
42	0x410c45e4	8.767063
43	0x40f6462a	7.696065
44	0x4094e82c	4.6533413
45	0x41604582	14.01697
46	0x4098acad	4.7710786
47	0x41308418	11.032249
48	0x407f2615	3.9866993
49	0x411be1e9	9.742654
50	0x41515a66	13.08457
51	0x40bd2012	5.910165
52	0x4108cf03	8.55054
53	0x40c9fbc2	6.311982
54	0x4102ab0a	8.166758
55	0x41074d6e	8.456404
56	0x40bc884a	5.891637
57	0x4156e4b3	13.430835
58	0x4113c133	9.234668
59	0x4151e149	13.117501
60	0x40d1ce56	6.5564375
61	0x4035b331	2.839062
62	0x40eef877	7.46783
63	0x415075d3	13.028766
